models/generator_aki.pth (torch, 381149 bytes, 6 tensors)

model.0.weight f4 [256, 74]
00000000: 14de 683d 0471 423d afe4 0a3d 9a38 0abe
00000010: 8dcd 34bd 7597 f43d 93bf a6bd 760f f3bc
00000020: 3b64 023e 7f29 533d 9183 b1bd 0dc2 40bd
00000030: 8f76 b23c 7ad7 73bd eda5 9ebd af8a 0f3c
00000040: 753d a7bc 01b6 dbbd 6505 f83d 829b 213d
00000050: ec27 4dbc 53ea f73c 7dd1 f93d 6cef 2abe
00000060: 951d 1c3e 2f49 ecbd 21f3 06be f547 753b
00000070: 5d39 3b3d 820b e63d b74c a43c 85b4 febd
00000080: 13a5 c6bd 13d1 8abb 6541 1d3e 0ff5 3d3d
00000090: ad50 c93d 84aa 0d3d c284 273d 5aad 023e
000000a0: cc03 013d 78f0 2c3e f725 3b3d 89ba 0cbd
000000b0: 8c0c 0b3e 77a9 c83c d980 d53d 03d8 9abc
000000c0: 518e d9bd 0995 fa3d 1f77 82bc 6975 8fbd
000000d0: 1579 5a3d 8764 d63d a4a2 f9bc 5ebf b33d
000000e0: f056 85bd 8726 ec3d 5d40 c43d dd43 a33c
000000f0: dc4a ea3c 58d1 cb3d 1371 d33c 2378 1d3e
00000100: 171b 5cbd 6657 1ebd 716e 8f3d c781 123e
00000110: 3389 4cbd 664c ba3c f934 a13d a917 3d3c
00000120: a799 853d a1d9 913d 144e f53c 1c37 ce3c
00000130: 7618 43bd a0af f53d 20e9 733b 0f06 f03d
00000140: c41b 9e3c f3bb c43d 7987 a5bd b3ad df3c
00000150: cfc2 93bd 711a b03d aa8a fabd ed00 1fbe
00000160: 6d97 68be 5f95 533e de76 83bc 047d ab3c
00000170: 7511 05bd 48fb 13be 3d47 903d e9e7 c03d
00000180: 42ad 4b3d 182c 3a3d b766 c3bd c6d3 efbd
00000190: 53f4 2b3d c0f2 ff3d 6bc9 4ebd 9ee7 393d
000001a0: f19a 293e 1adf 02be ecdc 38bd 6a1c 8ebd
000001b0: a1ef 213d 3be6 863d c01c 373d 69c3 203d
000001c0: 8a93 863d b254 90bb 7c6b bc3d dcbc 8bbd
000001d0: 4ed9 13bd 49cf 413d eb9d 563c d396 b73d
000001e0: 8902 72bd fc25 483d 370c bc3d 346a ff3d
000001f0: ad2f 0e3c 88f1 d4ba 42ae 603d 2ef7 f13c
00000200: 73c9 75bd 25c5 cf3d 52cf 363d 2527 f73d
00000210: d689 5d3d de95 c53d 60be 82bd 37d5 f73d
00000220: 82b7 44bd 6b6b 6c3d 5a85 7f3d 6510 023e
00000230: ad89 70bd 0079 023e 6b61 383e 3ae9 8f3d
00000240: 3608 793b 358f 9abd 9ab8 2abd 8d77 d73d
00000250: 9232 af3c 8471 113d 4c68 e7bd 78df f7bd
00000260: b147 bc3d c87b ed3d a038 1d3e cc7b 923d
00000270: deaf 023e 6b48 753d 22bf f5bc d0fc f23d
00000280: bfb6 b63d 2423 6cbd 170a f43b b86a 92bc
00000290: 4e6b 1b3d a017 1b3d eb72 b23d fc44 bcbd
000002a0: 80c3 68bd 825a 79bd 72b0 83bd 31f1 c1bc
000002b0: c3a0 dd3d 4bdc edbd b28c b0bc 5279 fabd
000002c0: 11fd c03d e116 343d 691b 973d 4f46 c3bd
000002d0: b9af 97bd 2cb6 dd3d 38f0 06bd da4c 283d
000002e0: 6984 2dbd db15 f0bc 7c03 113d 1c52 123e
000002f0: a86a 6cbc 9b18 9a3d 674d d23d 19c0 aa3d
00000300: 3f44 d93d a7c0 073e a5ac bbbd 3fe2 a43d
00000310: 2fc3 aa3d 6931 383c 92c0 85bd 20f9 d3bc
00000320: 09e1 483d 544b ca3c 4c22 d13c 80b8 173e
00000330: ac4b 4e3d 3b45 613c 8793 113e b77f 713c
00000340: c1b1 b03d 4177 593d abf8 19b9 84eb 883d
00000350: acd7 053e 78e4 ac3d 4aed 77bd f597 443d
00000360: 9c20 a1bd 9989 19bc ca57 bf3d 5d94 633d
00000370: 03c3 c03d d2e7 313a 055b e5bd 6a19 0fbe
00000380: 5164 52bd 6081 723d 398d 0a3e be1a c33d
00000390: f8cb bd3d 4b4b 96bd 9425 c73d ec33 513d
000003a0: 144d b0bc cb88 0d3d 226f 1ebc 141d 49bd
000003b0: 2823 3f3e a104 c93d 64a1 95bc 22df 683d
000003c0: 40f1 9abd fd64 8cbd 7a6c 593d 9a84 6c3d
000003d0: 3058 453d fa4e 1dbe 3ffd 5cbd a6da a5bb
000003e0: 2b22 1e3e 6add 01bd 8623 adb9 0476 e9bc
000003f0: da6a d13c 4989 ba3d b59d 26bc b62e cbbc
0.056852415 0.04747106 0.033909496 -0.13498154 -0.04414134 0.11942951 -0.08142009 -0.029670458
0.12733547 0.051553246 -0.086676724 -0.04706006 0.021785049 -0.059531666 -0.077464916 0.008761092
-0.020415047 -0.10728074 0.12110404 0.039454944 -0.012521725 0.030263102 0.1219816 -0.16692895
0.1524566 -0.11537396 -0.13178684 0.0037426923 0.045709003 0.11232664 0.020056112 -0.12436775
-0.09699454 -0.0042363494 0.15356977 0.046376284 0.09829841 0.034586444 0.040898092 0.12761441
0.03149776 0.16888607 0.045690503 -0.03435758 0.13579005 0.02449487 0.10424966 -0.01890183
-0.10622848 0.122354575 -0.015925942 -0.07004816 0.05333813 0.10468393 -0.03047306 0.08776735
-0.06510723 0.11530786 0.09582589 0.01992982 0.028600149 0.099520385 0.025810754 0.1537786
-0.053736772 -0.03865757 0.07003487 0.14307319 -0.04993553 0.022741508 0.07871432 0.011541286
0.065234475 0.071215875 0.029944457 0.025172763 -0.04763075 0.119963884 0.003721781 0.117199056
0.019300349 0.09606161 -0.0808248 0.027304506 -0.07214891 0.08598793 -0.12233479 -0.15527697
-0.22714014 0.2066245 -0.016047891 0.020933636 -0.03248735 -0.14451325 0.070448376 0.09419233
0.04972578 0.045452207 -0.09541076 -0.117103145 0.041981053 0.12497473 -0.050485056 0.045386903
0.16563012 -0.12780419 -0.045132563 -0.06939013 0.03953517 0.06586882 0.044705153 0.039248858
0.065711096 -0.0044046277 0.092001885 -0.068231314 -0.03609591 0.047316823 0.013099174 0.08964314
-0.05908445 0.04886435 0.09182017 0.124714285 0.008678359 -0.0016246298 0.054853685 0.02953681
-0.06000657 0.10145024 0.04463131 0.12068013 0.05408653 0.096477255 -0.063839674 0.121012144
-0.04802657 0.05771963 0.062383033 0.12701567 -0.058725048 0.1274147 0.18005912 0.07026906
0.003799928 -0.07546846 -0.041679956 0.105208494 0.021386418 0.035508648 -0.1129919 -0.1210317
0.091933616 0.11595875 0.15353632 0.07152519 0.127624 0.059883516 -0.029998366 0.118646264
0.08921575 -0.0576507 0.007447492 -0.017873153 0.03794413 0.037864327 0.08713325 -0.09192845
-0.05682707 -0.06087733 -0.06430139 -0.02367458 0.108216785 -0.11614283 -0.021551464 -0.12230171
0.094232686 0.04396713 0.07378275 -0.09534895 -0.07406563 0.10825762 -0.032943934 0.041088916
-0.042362604 -0.029307296 0.035403714 0.14289135 -0.014429726 0.07524224 0.102686696 0.08337421
0.1060872 0.13257085 -0.09163789 0.080509655 0.083380096 0.011242249 -0.065308705 -0.025875628
0.049042735 0.024694122 0.02552905 0.14816475 0.050365135 0.013749416 0.14216433 0.014739922
0.08627654 0.053092245 -0.00014683853 0.06685546 0.13070554 0.084420145 -0.06052903 0.04799648
-0.07867548 -0.009371185 0.09342916 0.055561412 0.094121955 0.0006786558 -0.11199001 -0.13974538
-0.0513652 0.059205413 0.13530435 0.09526585 0.092674196 -0.0733858 0.09723964 0.051074907
-0.021521129 0.034554284 -0.009670051 -0.049099997 0.18665755 0.09815336 -0.018265434 0.05685342
-0.07565546 -0.068551995 0.053081967 0.057743646 0.048179805 -0.15362158 -0.05395245 -0.0050614653
0.15442722 -0.031705298 -0.00033023598 -0.028498657 0.025563646 0.09108216 -0.010169436 -0.024802547

model.0.bias f4 [256]
00000000: a1d3 ac3a 8afb 8f3a 4e13 e03b 6a47 bf3d
00000010: 08ae 0b3d 8432 cc3d ef95 883b d1d4 dc3d
00000020: 09fb 1bbd 9184 e03d 4808 aa3c af13 c53d
00000030: 7bee ea3c d6b4 4dbd baa9 253e 1268 3c3d
00000040: 683e 613d 28a1 84bd 0ecb f73d 8797 c6bd
00000050: 2492 33bd fff5 df3d f7d4 5d3d 4864 b0bc
00000060: 78cf 6e3d 2bce 50bd 232b a03d f0f4 83bc
00000070: e912 dbbc 975b 99bd 25a9 34bc f466 063e
00000080: 25ee f53d 2ab2 a73d 3108 ce3c b43f 96bd
00000090: 624b fd3d fb7b e93d 1196 2f3e 5d32 893b
000000a0: 46b5 41bc bec2 893d 0f90 af3d 1ea7 03bc
000000b0: 3896 0bbc 845c 94bd 0838 053e 52b3 d93d
000000c0: bf44 da3d e24a bc3d 26a0 8f3d d715 063e
000000d0: 6b11 ab3d 08ee d73d 1b86 063e e6b5 13bd
000000e0: 30be 30bc 8215 0c3e c9a7 6e3d 3992 593d
000000f0: 55cd da3d dcdd f7bc 6f13 363c db9e 373c
00000100: 7471 a1bd 6b9b 0cbd ce2c 52bc 9340 583b
00000110: bc0a 403d 38e9 653c e03a 9cbd 4e5b b03d
00000120: 1db8 6cbd c9e1 b93d 1c97 e13d 0422 1e3e
00000130: 954f ebbb 84c7 a33d 51be 77bc ca7c a23c
00000140: e1ec 873d 06b9 633d 70ca 083e 6dea 1ebd
00000150: d911 553d 2f27 6fbd b6cf 63bd 8f69 5dbd
00000160: fa3f 233d 0238 4ebd 0d09 de3d 4fee 0d3e
00000170: ce1d 31bd 487e 74bd 8d3c 7b3d 91f7 88bc
00000180: 925c 1d3d c5f9 9f3d f82f 703d aa2c 90bd
00000190: 7ad5 b03d 91bf 84bd 1d82 b139 5b10 ea3d
000001a0: 1a38 c23d c52a d93c a796 113d d050 f9bd
000001b0: 99dc ecbc 2bfc 073e c30f 943d 9a8e 073e
000001c0: ebf8 c23d af58 76bd 9c2c 333d 421d 1c3e
000001d0: bb73 cb3d 6b03 52bc cadb 953d a825 5b3d
000001e0: f58e 063e bace 853d a803 dc3d 0f4c 51bd
000001f0: 1913 af3d 5823 d13d 0403 a43d f003 993d
00000200: f94a 7ebc 4abb 413d acb8 5c3d 65cf 443d
00000210: 3b36 973d 61c3 563d ae9d 0e3e 1c4d 473d
00000220: ff9e a73c 073b 2b3e 028d 013e 4c8c 173d
00000230: ca6d 673a 4d99 80bb 1141 9cbb 4093 0b3e
00000240: 9e5f 1f3e 424e 013e e987 653d 4dfe dcba
00000250: 434e 793d 453f 0c3e 8c95 d23d e394 1e3e
00000260: f4c3 c83d f647 cb3d 8dd9 f73b 8acb c8bc
00000270: 42a4 2a3c 9ace 093e db4a cd3d 9cce 94bd
00000280: da04 b13d 1649 003e 660c 1f3e 80c7 f5bc
00000290: 97e7 87bb 2267 253d 4e2c 9c3d c54b cc3d
000002a0: 566f 7e3d 0362 c13d 4f0e 90bc e0d7 233e
000002b0: 7d55 1b3c 9f4f 5ebc e000 69bd 98f2 883d
000002c0: e923 36bd 9a66 86bd 3f5a 79bd 2f4c 743d
000002d0: 6e90 d93d 29cd 8e3d cd7c fb3d 394e 83ba
000002e0: e298 193d c1c3 193e a0ba a1bc dc4a b63d
000002f0: 3c9c fd3b ccc6 b83c e174 95bd 1eef 9e3d
00000300: cc39 e33d c879 61bd 603b 05bd 28e9 073e
00000310: 543b 28bc 9aa1 32bd 090b 9cbd 4179 fb3d
00000320: 5fce 87bd 13e4 5bbc 5a70 f13d 87fe ee3d
00000330: 69aa 76ba 6aed 7abd e426 acbc 1d56 203c
00000340: d8ac b2bc d440 923d 4293 a73d b8c5 8c3d
00000350: 18f9 af3d dd35 7fbc 266a 0c3e 9f5c 56bd
00000360: efb1 fe3d 709c 0b3e f401 cc3d ee09 863d
00000370: 7c33 8ebd cad4 c73c 8e8a 71bc 7cdb fe3d
00000380: a4a8 f63d 306f 29bd d725 963d 3277 b7bc
00000390: 97e9 8abd 478b 4b3c d6c4 1ebb ec98 f23d
000003a0: 9d3a adbc b09c 9fbc 1ccf 663d 631a 233b
000003b0: 0bf3 103d 8a92 413d 0f99 f93d 3c22 7c3c
000003c0: 4128 a63c 6845 0f3e 3870 31bd 7522 4a3d
000003d0: 3605 f33d 6358 0f3e 40a0 ae3d 2ea3 953d
000003e0: 0f33 143d 7a70 82bd 3d87 1e3e 461d 94bd
000003f0: b733 d83c 9385 163e 54bc 7f3d 3117 0fbd
0.0013185629 0.0010984999 0.006838239 0.09339793 0.034101516 0.099705726 0.004168264 0.10782779
-0.038081203 0.10962785 0.020755902 0.09622895 0.02867817 -0.050221287 0.16178027 0.045997687
0.054991156 -0.064760506 0.120992765 -0.0969687 -0.043840542 0.10935592 0.054158177 -0.021532193
0.058303326 -0.050977867 0.07820728 -0.016108006 -0.026742416 -0.074881725 -0.011026655 0.13125211
0.12008313 0.08188279 0.02515039 -0.07336369 0.12367894 0.114006005 0.1714709 0.004186912
-0.011823004 0.06726597 0.08572399 -0.008035449 -0.008519702 -0.072442085 0.13009655 0.10629906
0.106576435 0.0919397 0.07012968 0.13094269 0.083529316 0.10543448 0.13137095 -0.036062144
-0.010787532 0.1368008 0.05826548 0.053117964 0.10683695 -0.030257158 0.011113032 0.011207308
-0.078829676 -0.034327906 -0.012828065 0.0032997474 0.046885237 0.014032654 -0.07628417 0.08611165
-0.05779277 0.09076268 0.1101515 0.15442663 -0.007181118 0.07997039 -0.015121059 0.019834895
0.06636978 0.055596374 0.13358474 -0.038797785 0.052018974 -0.058386978 -0.05561801 -0.054055747
0.039855935 -0.050346382 0.1084157 0.13860439 -0.043241315 -0.059690744 0.061337043 -0.016719611
0.03841836 0.07811312 0.058639497 -0.07039769 0.086344674 -0.06481851 0.00033857013 0.11428901
0.09483357 0.026509652 0.035544064 -0.12173617 -0.028913783 0.13279788 0.07229569 0.13237992
0.095201336 -0.06014317 0.043743715 0.15245536 0.09934183 -0.012818198 0.07317312 0.05350271
0.13140471 0.065335706 0.10742885 -0.051097926 0.085485645 0.102118194 0.08008388 0.07471454
-0.015520805 0.047297753 0.053887054 0.04804935 0.073833905 0.05243242 0.13927338 0.04865752
0.020461557 0.16721736 0.12651446 0.036999032 0.00088283105 -0.003924525 -0.0047684987 0.1363039
0.15563819 0.12627509 0.056037817 -0.0016860456 0.06086565 0.1369601 0.1028243 0.15486483
0.09803 0.09925835 0.007563776 -0.024511117 0.010415139 0.13457718 0.10024043 -0.0726597
0.086435035 0.1252788 0.15532073 -0.030002356 -0.0041474807 0.04038156 0.07625638 0.099753894
0.062117897 0.094425224 -0.017584948 0.16000319 0.009480831 -0.013568788 -0.0568856 0.06686896
-0.04446784 -0.065625384 -0.06087708 0.059642967 0.10623251 0.06972725 0.12279663 -0.0010017819
0.037499316 0.1501608 -0.01974231 0.08900997 0.007739572 0.022555731 -0.072976835 0.07760452
0.11095008 -0.05504778 -0.032527328 0.13272536 -0.010268051 -0.043611147 -0.07619292 0.12278987
-0.06631159 -0.013421076 0.117890075 0.11669641 -0.00094095484 -0.061261572 -0.021014638 0.009786156
-0.021810934 0.07141271 0.08182384 0.06873649 0.08592433 -0.015576807 0.13712367 -0.052334424
0.12436282 0.13633895 0.0996131 0.06544863 -0.069434136 0.024393458 -0.014742507 0.12444207
0.120438844 -0.041365802 0.07331436 -0.022395704 -0.06782835 0.012423343 -0.002422621 0.11845574
-0.021146113 -0.019483894 0.05634986 0.0024887554 0.035388034 0.04725889 0.12187397 0.0153890215
0.020282866 0.1399132 -0.04331991 0.049349267 0.11866228 0.1399856 0.08526659 0.07306515
0.036181506 -0.063691095 0.15481277 -0.07232146 0.026391847 0.14699392 0.062435463 -0.034934226

model.2.weight f4 [256, 256]
00000000: cbcc 85bc 1b19 5f3d 2cc5 7e3c d947 26bc
00000010: 8835 86bd 5b25 693c f90f 38bd 3f72 dfbb
00000020: 9abb a9bc 55d6 b13d d853 c73c e661 f6bc
00000030: 3560 843d d761 e63a 0826 543c 6bbf d33c
00000040: 6cb9 a7bc 0046 1abd e05e 22bd 3320 08bd
00000050: 2dbc 50bb 291a 25bc 7765 8d3d 9d49 123c
00000060: 72c7 0b3d 893f f0bc 9653 05bd 232a e33c
00000070: b77c 393c 2650 ad3c dff5 9d3c 8795 2abd
00000080: ffec 8a3d 55cb 6fbd 86d2 65ba 7cb6 fcbb
00000090: ac8e 5d3d d08a acbd 00f0 8dbd 7b07 ab3d
000000a0: 3d72 f4bc 1c22 12bd 9273 633d 7cf1 b33c
000000b0: bc95 99bb 6491 173c 61bc e5bc 2aee 7f3d
000000c0: 4d84 de3c 69d9 91bc 327c 32bd d752 023c
000000d0: 3bb7 d43c e4a8 663d fceb 02bd 9b5c fabc
000000e0: 459d 18bc d52b ecbc 28ef 3b3b 5298 81bd
000000f0: 0c5d 373d 2ebb fbbc 0f38 26bb 50de a03d
00000100: 408f 19bd 720f 04bd 5720 423d ccdb 5abc
00000110: a72d 4d3b 62d5 0b3d 82d9 5cbc e00a d3bc
00000120: 7893 3d3d 0cf3 9dbc 69dd 9e3d 165d 8e3c
00000130: 41a1 d3bb ae30 e83b f13d a0bc 9d52 42bc
00000140: 928b e2bc e47d e83c 2fbc 1d3a bb7e 86bd
00000150: 1db3 d53c 41a4 a3bc 4c17 cabc 2189 88bc
00000160: 9501 5a3d ba5d df38 f0aa a83a 568d 753b
00000170: e481 f5bc feea 523d 68c8 a6bc ba74 6dbd
00000180: 584b cfbc c505 743c 11c1 413c d972 a9bc
00000190: 5d35 083d 4671 693d 51e1 0bbc fe5a d2bc
000001a0: fe46 833d 6538 17bc 3d35 32bd 5408 c3bc
000001b0: baa8 3c3d 87fa 9a3d 4e8b bdbb e9e3 9f3c
000001c0: 884c 5dbd e881 a73d ab94 623c 9727 2d3d
000001d0: bd6f ac3d 05cb ef3a 8fa3 763d 157e 1f3d
000001e0: df11 37bd 6268 67bd de8e 50bd 96e5 933c
000001f0: 4356 3f3c 61b4 f8b9 0eae 3fbc 5f28 113a
00000200: ce2e d53c 7233 bcbd c925 613d 4614 0dbd
00000210: 6f86 893d 3539 923d dfa6 b53d 93c6 ae3c
00000220: 92e2 60bd b88a a53c 1c4a baba 5a43 8ebc
00000230: 23b8 8dbb ca7d be3c 5619 383d f934 51bd
00000240: ef54 aa3d 82c8 59bd fe00 3cbd f7e7 b9bc
00000250: ae80 a0bc 46b4 4e3d 48f8 353d 95fb af3d
00000260: 6cc3 e1bc 6435 543d c161 cb3c a28a 343c
00000270: 05ce 75bc 3e9e 4ebc b2db 1cbd 00bc b2bb
00000280: 23b1 3bbc 666a 5ebd 9680 62bb 5138 45bd
00000290: 5985 12bb 3314 0bbd 521b 83bd 046b 8a3b
000002a0: 9db7 78bd 1eb9 8eba 5edf 62bd 9d59 abbc
000002b0: 6605 c3bc a812 3a3d c6c1 163c b0ee 77bd
000002c0: ba9b 993d 3f99 c43c 6c7a d33c e8f3 953d
000002d0: f4e0 603d a4af 3d3d dfce 70bc 38ac 02bd
000002e0: 9a21 d43c c457 44bd 2feb 7dbd 8070 f2bc
000002f0: f59a 84bc 0914 573d f120 3f3d 48d8 773d
00000300: 6a1c 993c 4e00 02bc 56c8 a13d f860 42bd
00000310: e036 19bd 1c1c 3f3d e3fe a43d 07a0 853d
00000320: 815b ffbb 388f a13d adc2 503c c8b9 bfbb
00000330: e884 e13c 4ff4 59ba c96b 3cbd 189e 443d
00000340: ca55 5a3c 0d6d 13bd 9ac9 0b3d ebd9 613d
00000350: 75a0 8fbc 77ae 793c b154 8cbc 071d e5bc
00000360: 12d3 413d d723 34bd 8a36 9f3c b8a7 653d
00000370: db47 063d 0b27 7d3c cb2a 6ebd bad1 493d
00000380: cd64 403d 1f3a 713b 67c4 2ebd 136d 75bd
00000390: 4086 b93b 991a 783d 860b 97bb a026 a33d
000003a0: 0eb1 283d 3d17 983c f332 9dbd 4984 403c
000003b0: c407 253c b210 55bd ab5d ac3d 4e4d 763d
000003c0: c68e a33c 81af d13d 6227 cbbc 32b6 823d
000003d0: 5ca3 593d c43c c73c 2279 943d f6d9 1d3d
000003e0: 7c9a be3d 8dd4 0f3c 9f8a f4bc f2a3 1639
000003f0: 8c31 ab3d 70af c83c 3b40 703d 66ea 853d
-0.016333004 0.0544673 0.015549939 -0.010148966 -0.06553179 0.014230098 -0.044937108 -0.006819039
-0.020719338 0.08683459 0.024331972 -0.030075978 0.064636625 0.0017576766 0.0129485205 0.025848111
-0.020474158 -0.037664413 -0.03964126 -0.033233833 -0.0031850443 -0.010077038 0.069041185 0.008928684
0.034125753 -0.02932717 -0.032550417 0.027730053 0.011321238 0.021156382 0.01928228 -0.041646507
0.06783485 -0.058543522 -0.0008767027 -0.0077121835 0.05409114 -0.08424914 -0.06930542 0.08351036
-0.02983963 -0.03567706 0.05553014 0.021965735 -0.004687039 0.009250972 -0.028043928 0.06248299
0.027162695 -0.017803865 -0.043575473 0.007954321 0.025966277 0.05631341 -0.031963333 -0.030561736
-0.00931484 -0.028829494 0.0028676484 -0.06327881 0.04476647 -0.030728903 -0.0025363003 0.07854903
-0.03749013 -0.032241292 0.047394123 -0.013358068 0.0031307728 0.034139045 -0.013479592 -0.025762022
0.046283215 -0.019280933 0.077570744 0.017378371 -0.006458432 0.007085881 -0.019560786 -0.011860517
-0.027654443 0.028380342 0.0006017116 -0.06567141 0.026086384 -0.019975783 -0.024669312 -0.01666695
0.053224165 0.000106509266 0.0012868326 0.0037468276 -0.029969163 0.051493637 -0.020359233 -0.057972647
-0.025304481 0.014893954 0.011825816 -0.020684646 0.033254016 0.05699279 -0.008537606 -0.025678154
0.06410025 -0.009229754 -0.043507803 -0.023807682 0.046059348 0.075673155 -0.0057844287 0.019517856
-0.054028064 0.081790745 0.0138293905 0.042274084 0.0841975 0.0018294757 0.060214575 0.0389386
-0.044694778 -0.05649603 -0.0509175 0.018053811 0.011678281 -0.0004743664 -0.011699213 0.0005537327
0.026023295 -0.091895 0.054967675 -0.034443162 0.06715094 0.071398176 0.08869719 0.021334922
-0.054903574 0.020207748 -0.001421276 -0.0173661 -0.0043249293 0.02325334 0.044946037 -0.05107591
0.08316981 -0.053169735 -0.045899384 -0.022693617 -0.01959261 0.05046489 0.044426233 0.08592907
-0.027559005 0.05180873 0.024826886 0.011019381 -0.015002732 -0.01261097 -0.038295455 -0.0054545403
-0.011455807 -0.05430069 -0.0034561506 -0.04814941 -0.0022357313 -0.03395481 -0.06401695 0.004224183
-0.060721982 -0.001088891 -0.0553888 -0.020916754 -0.023806285 0.04542795 0.009201473 -0.060530365
0.075004056 0.023998855 0.025815211 0.07321912 0.054902032 0.046310082 -0.014697759 -0.03190252
0.025894929 -0.047935262 -0.061991867 -0.02959466 -0.01618717 0.05250934 0.046662275 0.060508996
0.018690307 -0.007934643 0.07899539 -0.047455758 -0.03740585 0.046657667 0.08056428 0.065246634
-0.0077928905 0.07888645 0.012741727 -0.0058510043 0.027529195 -0.0008314298 -0.04600123 0.048002332
0.013326118 -0.03599267 0.03412781 0.055139463 -0.017532567 0.01523935 -0.017130228 -0.027967943
0.047320433 -0.043979492 0.019435186 0.056068152 0.03278337 0.015451203 -0.05814628 0.049272276
0.04697113 0.0036808325 -0.042667773 -0.059918474 0.005661756 0.06057224 -0.004609528 0.079663515
0.041184478 0.018565768 -0.076757334 0.011750289 0.010072652 -0.052017875 0.08416303 0.060132317
0.01996554 0.10238553 -0.024799053 0.06382407 0.053134307 0.024320967 0.07249667 0.038537942
0.09306809 0.008778703 -0.029851256 0.00014366189 0.0835906 0.024497718 0.058655005 0.065388486

model.2.bias f4 [256]
00000000: fde5 893c de21 863d 43e2 38bd e38f 77bd
00000010: 0399 903c 0da0 803c 25ac 683c 983f 3d3d
00000020: a206 dabc 5f1b bbbc 4168 b13c 40d9 943d
00000030: ae0a 72bd 5729 0f3d 0b70 15bd 827f 833d
00000040: 92cb c03c b864 5c3d 4a63 b8bc 205a 2ebc
00000050: 972f 5ebd 7151 073d 451c ea3b a4f3 653d
00000060: e528 693d e49d 8abc d4a4 833d 10e0 00bd
00000070: e4a7 c3bc 6981 ef3c 74d1 a73c 3b2b 6cbd
00000080: 0eb6 b43c ca88 163d 20bc 35bc 7d1b ce3c
00000090: f674 0abd 16b9 2a3d 563c c3bc b3d7 49bd
000000a0: b8a7 dfbc b6eb 893d 11e5 9e3c f47e a13c
000000b0: 8d86 43bc 6eb0 663d c659 653b 0df6 453b
000000c0: 01ba 933d 02db 033d 67e6 7a3d 043d 213d
000000d0: 1ab5 303d 5e44 293d 500c 8ebb de64 47bd
000000e0: 2a02 fa3b f072 f83c 761b 1cbb 5cb2 c43c
000000f0: 0d8f 15bd b127 9abc 1512 683d df58 8a3d
00000100: 75f3 7b3d f426 983d c214 e2bc 4fec 44bc
00000110: be98 1e3d 93a3 803d 9e15 3a3d 1828 0b3c
00000120: 3e04 1ebd 84ce e0bc 1873 01bd 93ee 8e3d
00000130: 2e33 30bd 2439 603d 6836 673d 62de 11bc
00000140: 6e6c 3b3b adef 753d eccc bcbc d676 993b
00000150: ef4f 4dbc 1151 07bd 66bc 71bb 6af5 b8bb
00000160: 8b8a d13c 1bc9 8a3d 7688 f53c f8c3 55bd
00000170: 42d2 873c a90f 013d 24df 453d 742d a33d
00000180: 6b1e ffbb 8193 12bd 4525 46bd a1fc 32bd
00000190: 7da3 65bd 18e6 2a3d 5a08 d1bb f067 76bc
000001a0: f392 3a3d 2b89 603d d7ad 21bd cefc 57bd
000001b0: fd7d db3c 8e2e 443d 9ea5 793d 6e3f 03bd
000001c0: 9560 ab3c 1c12 48bc 6a0e 1ebd 18ab fc3c
000001d0: 87a6 18bd 7c81 613d 88bc 24bc f024 34bd
000001e0: bfdc 573d 490b 063c 5644 41bc 7e7e 38bd
000001f0: f316 4e3d 3fc6 653d ec59 113d d475 b4bc
00000200: 7ec9 afb7 282c 003d d6ab eb3c 88e0 4abb
00000210: 66a2 353d 85db 133d 6b87 2a3d 1b23 a33d
00000220: da79 b63c f0df d73c e131 8d3d 8549 0bbc
00000230: 80ba 07bd 58ec 8c3a 5697 23bd 3b8a 793d
00000240: 31a3 b1bb cb98 cfbc c447 ba3c a1e3 9b3c
00000250: e83d cc3b a9cc 1a3d f338 5fbc b3d4 d2bc
00000260: 6f0e 943d 5bf0 a7bc 77e1 ddbc cd4d a93b
00000270: df85 d8bc 9cd2 9c3d b2f4 143d 2195 dcbc
00000280: 85c9 b73c 8a2f 53bd cc2e 863d ee6d 803d
00000290: c541 863d c758 7abd 0b18 1abd be88 7d3d
000002a0: 4acf 353c 6a6e 4a3d 1dbd d13c fd7e f6bc
000002b0: 42b7 9c3d 3879 1a3d 4453 21bc e619 223d
000002c0: c3be 85bc eb65 983d 357d 553d 9ec3 483c
000002d0: 6468 a3bc 28e9 8dbc 630a 05bd b9cc 2cbd
000002e0: 6e2f 103b a5d0 2ebd bcde 943c d9ad 7ebc
000002f0: ede4 933c 8b60 e7bc 6e16 0cbc ae70 df3c
00000300: 0b64 f63c fbc8 053b 2bd1 503d e2fa 023c
00000310: 63ab 7abd 54e9 2e3d 1c1c 26bd f76b 333d
00000320: 003f 3cbd d38c cdbc e516 dbbc 98c4 3abd
00000330: d5c6 863d f916 823d 59de e13c c9d8 06bc
00000340: eb91 233d 7fe4 443c 0474 0d3d 55ec 32bd
00000350: fad0 fd38 6263 13bd f2e7 81bc 1fdd a83c
00000360: f2b6 253c 898c a53c eb54 a0bc ec92 6fbd
00000370: b028 ef3c 1cd7 00bd ae25 2fbd 17ca 20bd
00000380: 3eb9 13bd 0c1b ac3c 5a00 153d 99ba 2c3d
00000390: bed6 06bd 932b a8bb 6403 d4bc 532c 3a3d
000003a0: 83b4 55bd d2a5 533d 257c 73bc d5e0 103d
000003b0: 2eb0 a53d 829a 873c d33a 273d e354 79bc
000003c0: 5ae3 683d 9b8b edbc 2282 193d ba05 783d
000003d0: 78dd fd3c 218d 0f3b b98f 653c ebfc 253d
000003e0: 7718 82bc 23d5 64bc e9b2 f5bc 9f00 6abc
000003f0: 4234 c63b 6fc0 42bd 6962 fa3c 6340 35bc
0.0168333 0.065494284 -0.045137655 -0.060439955 0.017651087 0.015701318 0.014201199 0.046203226
-0.02661449 -0.0228402 0.021656157 0.07268 -0.059092216 0.034951534 -0.036483806 0.064208046
0.02353457 0.05380699 -0.022508282 -0.010641605 -0.054244604 0.033036653 0.0071444833 0.056140557
0.056923766 -0.016920991 0.06427923 -0.031463683 -0.023883767 0.029236512 0.020485617 -0.057658415
0.022059467 0.036751546 -0.011092216 0.025159592 -0.03380295 0.041680418 -0.023832481 -0.049277972
-0.027301654 0.067344114 0.019396337 0.019713856 -0.011933935 0.0563206 0.0034996136 0.0030206472
0.07213212 0.032191284 0.061254885 0.03936483 0.043141462 0.041324966 -0.004334964 -0.04868018
0.0076296525 0.030328244 -0.002382008 0.02401083 -0.036513377 -0.018817754 0.05665787 0.06755232
0.061511476 0.07429305 -0.027597789 -0.012019231 0.038719885 0.06281199 0.045430772 0.008493446
-0.038578264 -0.027442224 -0.031603903 0.06979098 -0.04301756 0.054741994 0.05644837 -0.008903118
0.0028598565 0.060043026 -0.023046933 0.004683356 -0.012531265 -0.033036295 -0.0036885976 -0.00564449
0.025578758 0.06776639 0.029972296 -0.052188843 0.01657975 0.031509075 0.048308507 0.07967654
-0.0077856085 -0.035785202 -0.048375387 -0.043697957 -0.056064118 0.04172334 -0.0063791694 -0.015039429
0.045550298 0.054818314 -0.039472427 -0.052731328 0.026793474 0.04789596 0.06094896 -0.032042913
0.020920077 -0.012211349 -0.038587965 0.030843303 -0.037268188 0.055055127 -0.010054715 -0.04398054
0.052700754 0.0081814015 -0.011796078 -0.045042507 0.050314855 0.056097265 0.035486147 -0.022028841
-2.0955453e-05 0.03129211 0.028768461 -0.0030956585 0.04434433 0.036098022 0.04163305 0.0796568
0.0222749 0.026351899 0.06894279 -0.008501415 -0.033136845 0.0010751588 -0.039939247 0.060922842
-0.0054210653 -0.025341412 0.022739299 0.01902944 0.0062329657 0.037792835 -0.013624418 -0.025736189
0.072293155 -0.020500353 -0.02708505 0.0051667453 -0.026431022 0.07657358 0.036366172 -0.026926579
0.02243496 -0.05155901 0.065518945 0.062709674 0.06555513 -0.06111982 -0.037620585 0.061897986
0.011096785 0.049421705 0.025602872 -0.03008985 0.07652141 0.03771326 -0.009846512 0.03957548
-0.016326314 0.07441314 0.05212136 0.01225367 -0.019947238 -0.017323092 -0.03248061 -0.042187426
0.0022000927 -0.042679448 0.018172614 -0.015544378 0.018053496 -0.028244277 -0.0085502695 0.02727541
0.030077001 0.0020413983 0.050980728 0.007994385 -0.061198603 0.042702988 -0.04055415 0.043804135
-0.04595852 -0.025091564 -0.026744315 -0.045597643 0.06580893 0.06352038 0.027571844 -0.008230397
0.03993408 0.012017368 0.03453447 -0.043682415 0.00012102905 -0.03598345 -0.01585767 0.020613251
0.010114418 0.020208614 -0.019571742 -0.058489725 0.029194206 -0.031455144 -0.042760544 -0.039255228
-0.036065333 0.02100899 0.03637729 0.04217014 -0.032919638 -0.0051321476 -0.025880523 0.045452427
-0.052174103 0.05167181 -0.014861141 0.035370667 0.08090244 0.016553167 0.040827584 -0.0152179925
0.056857444 -0.028997233 0.03747762 0.060552336 0.030989394 0.0021904188 0.014011317 0.040524404
-0.015880806 -0.013966831 -0.029992538 -0.014282375 0.00604871 -0.0475468 0.030564504 -0.011062714

model.4.weight f4 [37, 256]
00000000: 35fe a63c 3f2c abbd 2843 2ebd 0dd7 edbb
00000010: 58aa 72bd 1440 2f3d 1c5e 433d 48a9 b6bd
00000020: f1a4 103c a6f1 1b3d 0eb6 45bd 646c fa3c
00000030: 2741 1bbc 54b8 3c3d e950 6fbd 5749 ccbc
00000040: 04eb 643d 4813 843d 8fe8 cc3c d77a b0bd
00000050: ded3 28bc 4268 b2bc 4bda bbbd 87aa 5c3b
00000060: a8d0 86bd 5d6f 07bd 65d1 0dbd 3bae 0c3c
00000070: 6419 9abd b8ee 05bc 4cd3 ae3c 946f 28bd
00000080: d774 b5bb 62e2 f5bb 84fd d2bb b443 193d
00000090: 4a0f 2fbc 086e 433d fce7 873d 5b53 80bd
000000a0: 7929 843d b813 58bd ae49 68bd 3b05 93bd
000000b0: 3e92 aebd e3c5 f03c f2c7 953c f820 0c3d
000000c0: 4146 6bbd 3ae8 9a3d c85f b43d 5503 18bd
000000d0: 63e1 ea3a 043b 243d cd18 93bd 3fd8 793d
000000e0: 96a2 babd 049d 693b b15d 663d f952 e4bc
000000f0: 8924 bb3d ff87 16bd 7a5e 8a3b 039f 9c3b
00000100: cadd 573d c428 743d 97ad e7bb 873a ccbd
00000110: 184c 6cbd 0c95 803d 9559 963c 65e4 983c
00000120: 4c75 2e3c 17df 6cbd c788 8aba dec9 673d
00000130: 17d4 87bd e6ef ba3d 1596 9ebd d099 12bd
00000140: 844e 82bc 557b 5bbd b8b8 033c b5f8 7b3c
00000150: 93cb 6cbd d388 7b3d 0fbc 18bd 63cd a53d
00000160: 2c6d 72bd f459 1cbc f0bc efbc a467 8a3c
00000170: 451a 92bd 73f3 29bd 9aa5 02bc 4bfd 7a3b
00000180: 4a11 b9bd fff0 82bc adab 6b3d 0ab2 af3c
00000190: 293b 363d 318a 2bbd 5e19 3cbd e099 6e3d
000001a0: 0649 733d f26a cfbc 260c 263c 4c5c 06bd
000001b0: cc19 8cbd 4db2 5c3d f7d3 a7bc 2fb7 b73d
000001c0: b849 033d 6a78 cebc 731f 85bd 5b2d aa3d
000001d0: 9301 793c 2d8f b4bd 4ded 3e3d ff3b 8bbb
000001e0: 7a59 7dbd 0106 b1bc 38fd b53c d73e a5bd
000001f0: e691 31bd 603e c93c d576 b1bd b510 723d
00000200: eb94 da3c 5856 24bc 837d 203d a67a 6a3d
00000210: 0d70 df3c 6629 26bc 00aa 483c 72af b53c
00000220: ec59 fd3c 5a19 b13c f6f5 c63c 1422 813d
00000230: dba8 313d cd94 95bd 8b15 853d 8d01 5bbd
00000240: b219 3c3b 6a38 a63c 17bc 6abd 2c2e 673d
00000250: d405 97ba e711 85bd 567c f9bc 70d6 d1bc
00000260: e9ad e3bc 5f7b 5bba b6b3 123c 62a6 18bd
00000270: 2127 0e3d 4c23 e93c 3306 19bd ed58 653c
00000280: 4ee5 dabc bfd5 553c 14c4 823d 7f11 49bd
00000290: e74f 63bb 80e8 033d 6197 753c b50b efbc
000002a0: d672 30bd d81d 6bbd c434 c63c fe63 80bd
000002b0: 5aaf 323d d764 b13c 8993 eabb 66c1 263d
000002c0: b271 84bd bdbe 5f3d 7c87 843d 13ca b0bd
000002d0: 5134 a73c 3639 fe3c fd3e db3a ae12 453d
000002e0: b8cb 7bbd d23e 993d 1102 b8bd eaa9 763c
000002f0: b57a 933d c3d7 593d 2ea1 1cbc b051 99bc
00000300: 747c a5bd 1488 aebd 4ff7 ad3d 3f08 b23d
00000310: 72a3 943b 6d2e 483c 8dd1 37bd 2ebf b3bd
00000320: 1a0a 1f3d 7920 77bd 6949 97bb 6def b3bc
00000330: 4145 dc3c d650 a33c 313c cbbc a6b6 3a3d
00000340: c991 523d 5a57 cdbc 48cb 763d 9131 96bd
00000350: 9280 a03d d08c 8fbb cfaf dc3c c545 683d
00000360: 46b5 1fbd 47a3 c9bd d199 b13d 6081 6d3d
00000370: ab92 883d e49b ad3b 7b79 d33b eb04 72bc
00000380: 6a7b 5d3d b4a6 9f3d bb1f 173c 3c07 1f3d
00000390: 9e38 8d3d 1a38 303d 8502 5a3c 8234 13bc
000003a0: 1b99 b1bd 0f38 8b3d 0906 2f3c 8632 31bd
000003b0: 4857 22bd 0bdf ad3d 51e4 fbbc a516 febc
000003c0: 9426 ecb9 1b2e 7abc fb80 38bc 11ce 583a
000003d0: 2a14 38bd 3d2e 3d3d 4c6d 883c aff7 8c3d
000003e0: 198a 35bc 5030 4f3d 6df6 32bd 73e5 773d
000003f0: c8f7 823d 01ad 1dbc 24ea f6bc 36f8 dbbc
0.020384887 -0.08358049 -0.042544514 -0.007258302 -0.059244484 0.04278572 0.04769717 -0.089190066
0.008828388 0.03807225 -0.048269324 0.030569263 -0.009475983 0.046074226 -0.05842677 -0.024937315
0.05588819 0.0644899 0.025013236 -0.0861718 -0.010304419 -0.02177823 -0.091724955 0.0033670978
-0.06582767 -0.03306519 -0.034623522 0.008586462 -0.07524374 -0.008174591 0.021340989 -0.041122034
-0.00553761 -0.0075037936 -0.006438913 0.037418082 -0.010684798 0.047712356 0.066360444 -0.06265899
0.06453223 -0.05275318 -0.05671089 -0.07178732 -0.08523987 0.029391235 0.018283818 0.03421113
-0.057440046 0.07563825 0.08807331 -0.037112553 0.0017919954 0.040095344 -0.07182465 0.060997244
-0.09113042 0.0035646567 0.056241695 -0.027871596 0.09137828 -0.03675079 0.0042226883 0.004779698
0.05270175 0.05960919 -0.007070254 -0.09972101 -0.057689756 0.062784284 0.018353263 0.018663594
0.010648083 -0.057829943 -0.0010569327 0.056589 -0.0663225 0.09127788 -0.077434696 -0.03579122
-0.01590658 -0.053584415 0.008039646 0.015379121 -0.05781133 0.061409783 -0.03728872 0.08095815
-0.059186146 -0.009542931 -0.029264897 0.016895123 -0.07133917 -0.041491937 -0.007974053 0.0038297947
-0.09036501 -0.015984057 0.05753677 0.0214472 0.044490013 -0.041879836 -0.04592263 0.058252215
0.059395812 -0.02531955 0.010134732 -0.032802865 -0.06840858 0.05388098 -0.020486815 0.089704864
0.032052726 -0.025203902 -0.06500139 0.08309432 0.015198129 -0.08816371 0.046613026 -0.0042490955
-0.06185291 -0.021609308 0.02221547 -0.080686264 -0.04335203 0.024565876 -0.086652435 0.059097964
0.026682338 -0.010030352 0.039182197 0.057245873 0.02727511 -0.010141706 0.012247562 0.022178385
0.030926667 0.021618534 0.024287205 0.06305328 0.043373924 -0.07303772 0.064982496 -0.053468276
0.002870184 0.020290572 -0.057308283 0.056440517 -0.0011522123 -0.06497555 -0.030454796 -0.025614947
-0.027792888 -0.0008372571 0.008953979 -0.03726805 0.034705285 0.028459214 -0.037359428 0.013998252
-0.02672067 0.013051449 0.06385055 -0.04908895 -0.0034685077 0.03220415 0.014989705 -0.029180387
-0.043078266 -0.057401508 0.024195082 -0.06269072 0.04362426 0.02165453 -0.007158701 0.040711783
-0.06466998 0.05462526 0.06471154 -0.086322926 0.020410689 0.03103314 0.0016727146 0.048113517
-0.06147358 0.07482685 -0.08984769 0.015055159 0.07201139 0.053184282 -0.009559913 -0.01871571
-0.08080378 -0.085220486 0.08494436 0.08692979 0.0045360858 0.0122181 -0.044877578 -0.08776699
0.038827993 -0.060333703 -0.0046169055 -0.021964753 0.026888492 0.019936007 -0.024808975 0.045584343
0.051408563 -0.025066067 0.060252458 -0.07333673 0.07837023 -0.0043808 0.0269393 0.056707162
-0.038991235 -0.09845596 0.08671916 0.05798471 0.066686 0.0052981246 0.0064536906 -0.01477168
0.054072775 0.07795468 0.009223874 0.03882526 0.068955645 0.043022253 0.013306265 -0.008984687
-0.08671781 0.06797802 0.010682591 -0.043261074 -0.03963402 0.08489808 -0.030748518 -0.031016657
-0.0004504217 -0.015269781 -0.01126122 0.00082704524 -0.044941105 0.046186674 0.01665368 0.068831794
-0.011080288 0.050583184 -0.04369204 0.060521554 0.06394917 -0.009623767 -0.030140944 -0.026851755

model.4.bias f4 [37]
00000000: 49cc 13bc 3dbc 12bc 3832 51bd ca81 69bd
00000010: 01fa 933c 7690 9c3c f90a 0b3d 7054 7d3c
00000020: 59a7 563d c9a7 4b3d 417a 893b 29ff 12bc
00000030: 5ef4 8a3d 8b5a 1c3c 270e 043d 3d39 233c
00000040: bf79 02bd c94c 683d bcc3 58bd b879 48bc
00000050: b0bb 583d 3408 18bd 470f 803d f068 323d
00000060: 6692 1e3d 2103 adbc 7c3c 77bd b2f0 99bc
00000070: be0a 44bd 3a60 ebbb 7cca 163d 46d2 44bd
00000080: b838 20bd 907c e6bc 4898 953b 4136 50bd
00000090: a5c3 573d
-0.009020873 -0.008956012 -0.051073283 -0.057008542 0.018063547 0.019111853 0.03394601 0.015462026
0.05240569 0.04972056 0.004195482 -0.008971968 0.067848906 0.0095430715 0.03224006 0.009962377
-0.031854387 0.056713853 -0.05292104 -0.012236051 0.052913368 -0.037117198 0.06252914 0.043557107
0.038713835 -0.021119656 -0.060360417 -0.01879153 -0.047861807 -0.007183102 0.036814198 -0.048052095
-0.03911659 -0.028135568 0.0045652725 -0.05083299 0.052676816
