models/generator_sepsis.pth (torch, 381249 bytes, 6 tensors)

model.0.weight f4 [256, 74]
0	0xbd871a46	-0.06596808
1	0xbda02855	-0.07820193
2	0xbdbc1625	-0.09183911
3	0xbcd28a8f	-0.025700836
4	0x3b213b85	0.0024602127
5	0x3e20b912	0.15695599
6	0xbd503d71	-0.050839845
7	0xbc85844a	-0.016298432
8	0x3e17335a	0.14765683
9	0xbe4b4cf5	-0.19853576
10	0x3e064f2e	0.13116142
11	0x3de646f6	0.112440035
12	0x3c809c25	0.015699456
13	0xbe0a6013	-0.13513212
14	0xbd5799f2	-0.052637048
15	0x3bb6ce42	0.005578787
16	0xbc1d0d45	-0.009585683
17	0xbdd3ad2c	-0.10335764
18	0x3cd1b4f1	0.025598975
19	0x3d91b796	0.07115094
20	0xbda18f90	-0.078887105
21	0x3e00b98f	0.12570785
22	0x3e11474f	0.14187358
23	0xbc092737	-0.008371166
24	0x3df11042	0.11770679
25	0xbddb010c	-0.10693559
26	0xbd1deb09	-0.038554225
27	0x3d70b2e3	0.05876435
28	0x3e5b3b56	0.21409354
29	0xbc9aaa06	-0.018879902
30	0x3d340819	0.043953035
31	0xbc49fe60	-0.012328714
32	0x3e5e4a0e	0.21707937
33	0x3dc0d6fc	0.09416005
34	0xbd5c7716	-0.053824507
35	0xbdf69ee8	-0.12042028
36	0xbe0c9ac1	-0.13730909
37	0x3e2bc84c	0.16775626
38	0x3d8d5f3b	0.069029294
39	0x3d1a6296	0.037691675
40	0x3e04c434	0.1296547
41	0x3e195280	0.14972878
42	0xbd889f74	-0.06671038
43	0xbd27c8cc	-0.04096298
44	0xbbc1be30	-0.0059125647
45	0x3dab2bfb	0.08357998
46	0x3e528178	0.20557201
47	0xbd95bf00	-0.07311821
48	0xbde442b9	-0.11145539
49	0x3d56b5d6	0.052419506
50	0xbc8d6da6	-0.017264199
51	0x3d8a3644	0.067486316
52	0xbb75615e	-0.0037442069
53	0x3e1c84d1	0.1528504
54	0x3dc5ca71	0.09657753
55	0xbc89b03e	-0.016807672
56	0xbd07395f	-0.033013698
57	0x3e30b075	0.17254813
58	0x3dce680d	0.1007844
59	0xbdadf4e0	-0.08493972
60	0x3e3c5ebd	0.18395515
61	0xbda2d0a1	-0.07949949
62	0x3e1712c2	0.1475325
63	0x3dbf14d0	0.093301415
64	0xbcf1bfba	-0.029510368
65	0xbdb08b48	-0.08620316
66	0x3d17016d	0.036866594
67	0x3d88eab6	0.066853926
68	0x3daa09fe	0.08302687
69	0xbe12503d	-0.14288421
70	0xbd496bd5	-0.049175102
71	0xbcc1908f	-0.023628501
72	0x3e26c90d	0.16287632
73	0x3dc15348	0.09439713
74	0xbd9c833a	-0.07642217
75	0x3b9bf855	0.004759828
76	0x3e576f59	0.2103857
77	0x3dc4368f	0.09580719
78	0x3e00a4ba	0.12562838
79	0xbe04e0a6	-0.12976322
80	0x3b8e403a	0.0043411525
81	0x3bc261b4	0.0059320573
82	0xbe120295	-0.14258797
83	0xbe309862	-0.1724563
84	0xbdee1a48	-0.116261065
85	0x3df9c430	0.12195623
86	0xbd61755e	-0.05504357
87	0x3dad54d7	0.084634475
88	0xbe13ab99	-0.14420928
89	0xbd9603b4	-0.07324925
90	0x3dd864e5	0.10566119
91	0x3d0a1519	0.033711527
92	0x3d273a09	0.04082683
93	0x3d4fec83	0.050762665
94	0x3e3b879e	0.18313453
95	0x3e68b5f6	0.22725663
96	0xbd1f1bb4	-0.03884478
97	0x3d9088a6	0.070573136
98	0x3e69a473	0.22816639
99	0xbe04bea4	-0.12963349
100	0xbc2b24e2	-0.010445805
101	0xbe638ed1	-0.22222449
102	0x3e50ed5b	0.20403044
103	0x3e236fba	0.15960589
104	0xbdb2a347	-0.08722549
105	0x3def49f4	0.11684027
106	0xbdefb36f	-0.11704146
107	0xbe031502	-0.12800983
108	0x3bb475b7	0.0055071968
109	0x3e5035f6	0.20333084
110	0x3c856bc7	0.016286744
111	0x3daa4e12	0.08315672
112	0x3e26e125	0.16296823
113	0xbcd3b974	-0.025845267
114	0x3db704bb	0.08936449
115	0xbd72de44	-0.059294
116	0x3e1264e2	0.14296296
117	0x3cc2d02c	0.023780905
118	0x3e0d413c	0.13794416
119	0x3d2b50ee	0.041825227
120	0x3de28433	0.11060371
121	0x3d6f95d9	0.058492515
122	0x3b5f0f17	0.0034036094
123	0x3da7d607	0.08195119
124	0x3d76168f	0.060080107
125	0x3e15ae93	0.14617376
126	0xbbccf433	-0.0062546968
127	0x3d9e0eca	0.077176645
128	0x3d1179d0	0.03551656
129	0x3d8a7636	0.06760828
130	0x3de15f97	0.110045604
131	0xbdcf74fc	-0.10129735
132	0xbdb03c08	-0.086052
133	0x3d86af10	0.06576359
134	0x3d20adeb	0.03922836
135	0xbe29084e	-0.16507074
136	0x3cf4fc8c	0.02990558
137	0x3dbbf599	0.091777034
138	0x3e851355	0.25991312
139	0xbd16bafa	-0.03679941
140	0xbe31e569	-0.1737267
141	0x3d423334	0.047412112
142	0x3d6ab5b7	0.057302203
143	0x3d95b809	0.073104925
144	0x3e101e1f	0.1407399
145	0x3e07b4cd	0.13252564
146	0xbe3e719e	-0.18598029
147	0xbd984da0	-0.07436681
148	0x3e69534f	0.22785686
149	0xbdd604a1	-0.10450102
150	0x3d8f5f6f	0.070006244
151	0xbd303eaf	-0.04302853
152	0xbde08526	-0.10962896
153	0xbd29aa33	-0.04142208
154	0xbd9c9723	-0.076460145
155	0x3e03707e	0.12835881
156	0x3cfc1972	0.030773852
157	0x3d7a2c4f	0.061077412
158	0xbe617e62	-0.22020867
159	0xbdd3ec1e	-0.1034777
160	0x3d272f26	0.04081645
161	0xbe8083ba	-0.251005
162	0xbe35a560	-0.17738867
163	0x3dac8cfa	0.08425327
164	0xbd863ae4	-0.06554201
165	0x3da183d6	0.07886474
166	0x3d94e6b0	0.07270563
167	0x3d2ecc90	0.042675555
168	0x3e465dbe	0.19371697
169	0x3da3d1da	0.079990104
170	0x3e7b849e	0.24562308
171	0x3e99b848	0.30023408
172	0x3d57c198	0.05267486
173	0xbeb66b23	-0.35628614
174	0x3e08f9dc	0.13376564
175	0x3e417a7f	0.18894385
176	0x3d80a4be	0.06281422
177	0xbe528fb1	-0.20562626
178	0xbe2f7a48	-0.1713649
179	0x3d92e250	0.07172072
180	0xbc950fe6	-0.018196058
181	0xbe1aa53a	-0.15102091
182	0xbe06b122	-0.13153508
183	0x3c00b6da	0.007856095
184	0x3dffde72	0.124936
185	0xbda0e28e	-0.07855712
186	0x3d903241	0.07040835
187	0x3e177a1d	0.14792676
188	0x3d591dc3	0.0530069
189	0x3cd03a85	0.02541853
190	0x3e12e0a3	0.14343505
191	0x3e16f8df	0.14743374
192	0xbda03743	-0.0782304
193	0x3aaa2e56	0.001298378
194	0xbd22d539	-0.039754126
195	0x3e4f8cab	0.20268504
196	0x3e31070c	0.17287844
197	0x3c8e7e9e	0.01739436
198	0x3e79c5d9	0.24391879
199	0x3e506530	0.203511
200	0x3c4ca49c	0.012490418
201	0xbc3e0e9f	-0.011600166
202	0xbd7c304f	-0.06156951
203	0x3e117859	0.14206065
204	0x3dea5e87	0.11443811
205	0xbd8792b7	-0.066197805
206	0x3dcac803	0.099014305
207	0xbe6973d8	-0.22798097
208	0xbe364812	-0.1780093
209	0xbd01a2ee	-0.031649522
210	0x3e69d816	0.22836336
211	0xbd959ab6	-0.073048994
212	0xbdd03975	-0.10167209
213	0x3dc4c96f	0.09608733
214	0x3e7021dc	0.23450416
215	0x3e561d61	0.20909645
216	0x3d50e235	0.050996978
217	0x3de95b34	0.11394349
218	0x3df8708a	0.1213084
219	0x3dd4b014	0.10385147
220	0x3e362064	0.17785794
221	0x3ced7159	0.028984712
222	0x3d5692fb	0.052386265
223	0x3de49371	0.11160935
224	0xbd7f76d6	-0.06236919
225	0x3cfda6ec	0.030963384
226	0xbec3636c	-0.3816179
227	0x3e2ddcd9	0.16978778
228	0x3d80c058	0.06286687
229	0x3d681b27	0.05666652
230	0xbdd22009	-0.102600165
231	0xbdc4722f	-0.09592091
232	0xbe23cd64	-0.15996319
233	0x3d9bf880	0.07615757
234	0x3cc7bd58	0.024382278
235	0xbd4aa6a9	-0.049475346
236	0x3cbf770d	0.023372198
237	0xbddcc3c7	-0.10779529
238	0xbd939af7	-0.072072916
239	0xbbe95372	-0.007120543
240	0x3c0fb70c	0.008771669
241	0x3d5aec0e	0.053447776
242	0x3e48e03c	0.19616789
243	0xbe301722	-0.17196324
244	0x3bc0dff4	0.0058860723
245	0x3df9a473	0.12189569
246	0x3dbfabf1	0.09358967
247	0x3d43b6f6	0.047781907
248	0xbe3ba53b	-0.18324749
249	0xbc8f6094	-0.017502107
250	0xbd6f2a53	-0.058389973
251	0xbd620baa	-0.055186905
252	0xbde34c6c	-0.11098561
253	0x3c6c2e3a	0.014415318
254	0x3b46177e	0.0030226405
255	0xbc017301	-0.007900954

model.0.bias f4 [256]
0	0x3de063d7	0.10956543
1	0x3dc470c2	0.09591819
2	0x3d5778ad	0.05260532
3	0x3d3c1bc2	0.04592491
4	0x3de43de6	0.11144619
5	0xbd059f38	-0.032622546
6	0x3e3f835a	0.1870245
7	0x3e0b3638	0.13594902
8	0x3deb0811	0.11476148
9	0x3dd7bc0c	0.10533914
10	0x3e22f859	0.1591505
11	0x3e450c95	0.19243081
12	0x3d7d639a	0.061862566
13	0x3d197f68	0.03747502
14	0x3be872c1	0.007093758
15	0x3dcd71ee	0.10031496
16	0xbd9e08bf	-0.07716512
17	0x3dfad62d	0.12247882
18	0xbc019b7b	-0.007910605
19	0x3dc9e121	0.09857393
20	0xbc8ee291	-0.01744202
21	0x3e3dfa09	0.18552412
22	0xbd0d608f	-0.034515914
23	0x3e1ab9de	0.15109965
24	0x3d8f14ec	0.069864124
25	0xbd7f864d	-0.06238394
26	0xbcad3f68	-0.021148399
27	0x3d7c95fe	0.06166648
28	0x3e33d765	0.17562635
29	0x3dcd4d8b	0.10024556
30	0x3d5beecf	0.053694542
31	0x3e04a38e	0.12953016
32	0x3e3ae504	0.18251425
33	0x3d845fbb	0.06463572
34	0x3dec2829	0.115310974
35	0x3dd39eae	0.10333
36	0x3da22c82	0.079186454
37	0x3bb925b7	0.005650248
38	0xbc9253b3	-0.017862177
39	0x3dff32e5	0.12460879
40	0x3d7d0a8d	0.06177764
41	0xbd6c650c	-0.057713553
42	0x3e0acbab	0.13554256
43	0x3df7f592	0.12107386
44	0x3b5e7677	0.0033945122
45	0x3e24d0d5	0.16095288
46	0x3d9848e7	0.0743578
47	0xbd24ff4b	-0.04028253
48	0x3e2d86ed	0.16946001
49	0x3e255858	0.16146982
50	0xbd94ec35	-0.072716154
51	0x3e141940	0.14462757
52	0x3e2ba9a0	0.16763926
53	0x3c5a10b6	0.013309648
54	0x3d410e16	0.047132574
55	0x3de56480	0.112008095
56	0xbd5deaa7	-0.05417886
57	0xbd8109fd	-0.06300733
58	0x3dbb21b9	0.091372915
59	0x3e47b14c	0.19501227
60	0xbcc0159a	-0.0234478
61	0xbc8fe7a0	-0.017566502
62	0x3de90b2b	0.11379083
63	0x3e0b0a8f	0.13578247
64	0x3d7edd86	0.06222298
65	0x3d9beb42	0.07613231
66	0xbc8c0388	-0.017091528
67	0x3db9c393	0.09070506
68	0x3e009240	0.1255579
69	0xbd82a491	-0.06379045
70	0xbaea7700	-0.0017888248
71	0x3d94bbdf	0.07262396
72	0x3d2c1734	0.042014316
73	0x3e27ca14	0.1638568
74	0x3d06ab2f	0.032878097
75	0x3dc5bcb5	0.09655134
76	0x3e2003c2	0.15626433
77	0x3e0eda16	0.1395038
78	0x3cf77e37	0.030211551
79	0xbd87d28f	-0.06631958
80	0xbcbc819c	-0.023011021
81	0x3d105143	0.035233747
82	0x3d8724e8	0.06598836
83	0xbc9d7499	-0.019220637
84	0x3da5e7d5	0.08100859
85	0x3d43dafe	0.04781627
86	0x3d9767c1	0.07392836
87	0xbdae632b	-0.085150085
88	0x3d518ab8	0.051157683
89	0x3e05f2f9	0.13080968
90	0x3d322ca7	0.043499615
91	0xbc190e8b	-0.009341846
92	0x3b86a30b	0.0041087917
93	0x3d36aed5	0.044600327
94	0x3db637d2	0.08897366
95	0x3d6b089e	0.057381265
96	0xbca0821f	-0.019593297
97	0x3da906a3	0.08253219
98	0x3e355e21	0.17711689
99	0x3e0b1c3b	0.13584988
100	0x3d368ce3	0.044567954
101	0x3e374978	0.1789912
102	0xbd1c4933	-0.038155746
103	0x3d8f826b	0.07007297
104	0xbccad946	-0.024761807
105	0x3ccbcbfb	0.024877539
106	0x3de3b630	0.11118734
107	0xbcc83689	-0.024440067
108	0xbd8f357a	-0.06992622
109	0x3db52fb7	0.088469915
110	0x3e071643	0.13192086
111	0x3cc70882	0.024296049
112	0x3db972b4	0.09055081
113	0x3d975206	0.073886916
114	0x3d15f7b1	0.03661317
115	0xbc83f7d0	-0.016109377
116	0xbd3fd878	-0.0468373
117	0x3e47b5cf	0.19502948
118	0x3e00c4d0	0.12575078
119	0x3d9de5b7	0.0770983
120	0x3e194740	0.14968586
121	0x3cd6b8d2	0.026211176
122	0xbbfd46c8	-0.007729385
123	0x3db96bd0	0.09053767
124	0x3e04ca64	0.12967831
125	0x3d492453	0.049106907
126	0x3dd7a7b2	0.10530032
127	0x3df0db52	0.11760582
128	0x3d663ce9	0.056210432
129	0x3dec232b	0.11530145
130	0x3c351044	0.011051241
131	0x3dfec645	0.12440161
132	0x3e20900d	0.15679951
133	0x3dcc98d8	0.0999009
134	0x3e36d629	0.17855133
135	0x3d1f6c61	0.038921718
136	0x3e246b8e	0.16056654
137	0x3d8b8aa9	0.06813557
138	0xbc7c5a2d	-0.015402359
139	0x3c48bb1b	0.012251641
140	0x3d2ceb5a	0.042216636
141	0x3dc9b47e	0.09848879
142	0x3dfb7300	0.12277794
143	0x3d8864b9	0.06659836
144	0x3df300c2	0.11865379
145	0x3ddd94a0	0.108193636
146	0xbce7b6e4	-0.028285451
147	0x3d38965a	0.04506526
148	0x3dee35fb	0.1163139
149	0x3c5f2463	0.013619515
150	0x3dddfa85	0.108387984
151	0x3da1c870	0.078995585
152	0xbd493bc9	-0.04912928
153	0x3e1bb013	0.15203886
154	0x3b99a0a7	0.0046883407
155	0x3d888e63	0.06667783
156	0x3ce74c51	0.028234633
157	0xbd50cb46	-0.050975107
158	0x3d97ca25	0.07411603
159	0x3e24fab4	0.1611126
160	0x3d47273f	0.048621412
161	0x3df4905f	0.11941599
162	0xbd2f4e16	-0.042799078
163	0xbbae353d	-0.005316405
164	0x3e3c6356	0.18397269
165	0x3d745964	0.059655562
166	0x3cd0abf5	0.02547262
167	0x3d7d67dd	0.06186663
168	0xbc8e351d	-0.01735931
169	0x3da9a7f1	0.082839854
170	0x3e187ef0	0.14892173
171	0x3d2c06c9	0.04199866
172	0x3c5a61a8	0.013328947
173	0x3c247347	0.01003725
174	0x3c4780ef	0.012176736
175	0x3da1ee96	0.07906835
176	0x3e019690	0.12655091
177	0xbc201029	-0.009769478
178	0xbd901371	-0.07034958
179	0xbd2552eb	-0.04036228
180	0x3d868cd7	0.06569832
181	0x3d54626d	0.05185168
182	0x3d940321	0.07227159
183	0x3e112aaa	0.14176431
184	0x3d949ae0	0.072561026
185	0xbccf1dee	-0.025282826
186	0x3e38dcf8	0.18053043
187	0xbd3516f6	-0.04421135
188	0x3a95bb25	0.0011423571
189	0x3db3088e	0.08741866
190	0x3d8691d3	0.065707825
191	0x3c01796b	0.007902483
192	0x3c9a97d0	0.018871218
193	0x3dbd769a	0.09251137
194	0x3df5b39e	0.1199715
195	0x3d1caf6e	0.03825324
196	0x3dcdbefc	0.10046193
197	0x3d94b634	0.07261315
198	0x3cf6d02e	0.030128565
199	0x3839ffc2	4.434563e-05
200	0x3de44366	0.11145668
201	0x3dac627d	0.08417223
202	0x3cae698b	0.021290561
203	0x3ddf63b6	0.1090769
204	0x3ce201b0	0.027588695
205	0x3e229bea	0.15879789
206	0xbd8d5e14	-0.069027096
207	0x3da6c9d0	0.081439614
208	0xbd55e169	-0.05221692
209	0x3e09eeb3	0.13469963
210	0x3df3b325	0.118994035
211	0xbb04aa69	-0.0020243174
212	0x3b27f007	0.0025625245
213	0xbd5c2765	-0.053748507
214	0x3e35d42a	0.17756715
215	0x3caeaf58	0.021323845
216	0xbd38e4f1	-0.04514021
217	0xbd3cc9ca	-0.04609088
218	0x3e0cb21c	0.13739818
219	0x3e3207d2	0.17385796
220	0x3d400b49	0.046885762
221	0xbcff92ba	-0.031197894
222	0x3e14f26c	0.14545602
223	0x3d846c5e	0.06465982
224	0x3dfa7137	0.12228625
225	0x3dd07a59	0.10179586
226	0x3da604bf	0.08106374
227	0x3d564c0a	0.05231861
228	0x3e142226	0.14466152
229	0x3c9d6f96	0.019218247
230	0xbc91bd42	-0.01779044
231	0x3d7bab1d	0.061442483
232	0x3cba78d6	0.022762697
233	0xbc4b0e67	-0.0123935705
234	0xbcc6da83	-0.024274116
235	0x3c429262	0.011875721
236	0x3ca585c3	0.020205384
237	0xbd9aa469	-0.0755089
238	0x3cc153e8	0.02359958
239	0xbc8ea898	-0.017414376
240	0x3ccd76cc	0.02508106
241	0x3c4e40b2	0.012588667
242	0x3d8e6710	0.06953251
243	0x3e20cf69	0.1570412
244	0x3e07e977	0.13272654
245	0x3da55e23	0.08074596
246	0xbd07ef38	-0.03318712
247	0x3e4909f2	0.196327
248	0x3d863714	0.06553474
249	0x3d4e8e85	0.050428886
250	0xba99a1bf	-0.0011721178
251	0x3e0652e2	0.13117555
252	0x3bd20e92	0.0064104283
253	0xbbd6bd36	-0.0065533174
254	0x3dcb388c	0.09922895
255	0x3dad3087	0.084565215

model.2.weight f4 [256, 256]
0	0xbca19f9f	-0.019729434
1	0x3d959634	0.073040396
2	0x3c2bb216	0.010479471
3	0xbcda6c7c	-0.026663058
4	0x3c79c133	0.015243816
5	0x3df68d36	0.120386526
6	0xbdaa5c3f	-0.08318376
7	0xbdc31f4a	-0.09527452
8	0x3d751039	0.059829924
9	0xbcc22c1c	-0.023702674
10	0xbd00a5f7	-0.031408276
11	0xbda45250	-0.08023512
12	0x3d896534	0.06708756
13	0xbd959bd4	-0.073051125
14	0xbd116603	-0.035497677
15	0xbd6ec5d6	-0.05829414
16	0x3d0e9c32	0.03481693
17	0xbd0521df	-0.032503005
18	0xbd1a0689	-0.03760389
19	0x3d16bec8	0.036803037
20	0x3dba75e3	0.09104516
21	0xbbc7f204	-0.0061018486
22	0x3d643fdb	0.05572496
23	0x3d3a140e	0.045429282
24	0x3dfd5245	0.12369207
25	0x3de34af6	0.11098282
26	0xbaf9b9d9	-0.0019052579
27	0x3de85c4d	0.1134573
28	0x3d32e3cf	0.043674286
29	0xbd887b96	-0.06664197
30	0xbccbe556	-0.02488963
31	0xbdb9578c	-0.09049901
32	0x3d44fdb9	0.04809353
33	0xbcf765f2	-0.030199979
34	0xbdfebcd7	-0.12438362
35	0x3d598843	0.053108465
36	0x3b946f2d	0.0045298547
37	0x3dd93bd9	0.10607118
38	0xbcc1b406	-0.023645412
39	0x3dbc4b4d	0.0919405
40	0x3da961b3	0.08270588
41	0x3cfca44a	0.030840058
42	0xbdd85e0b	-0.10564812
43	0x3df37358	0.118872344
44	0x3dba116b	0.090853535
45	0x3d56e9c2	0.052469023
46	0x3d3686dd	0.04456221
47	0x3ccd0949	0.025028842
48	0x3c043d5f	0.008071273
49	0x3ca9c390	0.020723134
50	0x3db0aeed	0.086271144
51	0xbccc2278	-0.02491878
52	0xbe16d56e	-0.14729854
53	0xbc0f9682	-0.008763911
54	0xbc32817a	-0.010895127
55	0xbd8abce4	-0.06774309
56	0x3c7f86e0	0.015596122
57	0xbcd7c237	-0.026337726
58	0xbdb0796c	-0.086169094
59	0x3e38cc46	0.18046674
60	0xbd10ce6e	-0.035353117
61	0xbc45e582	-0.012078645
62	0xbe210022	-0.15722707
63	0xbe07699d	-0.13223882
64	0x3baecbf8	0.0053343736
65	0xbd356366	-0.044284247
66	0x3d05ab45	0.03263404
67	0x3dc9007a	0.09814544
68	0xbd9faeab	-0.07796987
69	0xbbfcb794	-0.007712314
70	0xbc80dbce	-0.015729811
71	0xbd9d5667	-0.076824956
72	0x3d3c9c80	0.046047688
73	0x3e203c37	0.1564797
74	0x3e0b1d07	0.13585292
75	0xbce55d2b	-0.027998528
76	0x3d34b43a	0.04411719
77	0xbca98b0b	-0.020696184
78	0x3ca1a021	0.019729676
79	0x3d5e2114	0.054230765
80	0xbd424947	-0.047433164
81	0x3d2c802c	0.04211442
82	0x3e688f96	0.22711024
83	0x3cb93081	0.022606136
84	0xbdfa3f15	-0.12219063
85	0xbea4c92b	-0.3218473
86	0xbd2a1d53	-0.041531872
87	0x3d44e0cd	0.04806595
88	0xbc972915	-0.018452207
89	0xbdab0b07	-0.08351713
90	0x3d85d8e5	0.0653551
91	0xbd67d4c0	-0.05659938
92	0x3de02a2e	0.10945545
93	0xbd945bb8	-0.072440565
94	0x3dddc841	0.10829211
95	0xbe1e6330	-0.15467525
96	0x3d8ac138	0.06775135
97	0xbd9e1a57	-0.07719868
98	0xbd167564	-0.036733046
99	0xbdbe3580	-0.09287548
100	0xbd810d65	-0.06301383
101	0x3b4af108	0.003096642
102	0xbd5015d8	-0.05080208
103	0xba10d597	-0.00055249914
104	0x3d87adfd	0.066249825
105	0x3d807e7b	0.06274124
106	0x3d9fe26d	0.07806859
107	0x3d41ae5e	0.04728543
108	0x3d837ba8	0.0642007
109	0x3cb2c9c3	0.021824723
110	0x3d0cbf54	0.034362152
111	0x3d7203cf	0.059085663
112	0x3cf7b43a	0.030237306
113	0x3d2b46c8	0.04181555
114	0x3c958548	0.01825203
115	0x3e3516ff	0.17684554
116	0x3bbd60e7	0.005779374
117	0xbcfed327	-0.031106545
118	0x3db16142	0.086611286
119	0x3c8480ae	0.01617464
120	0x3d09a399	0.033603285
121	0xbb96d9f0	-0.004603617
122	0x3d01e5b7	0.031713214
123	0xbc9c273e	-0.01906168
124	0xbd8088a2	-0.06276061
125	0x3c2b41d6	0.010452708
126	0x3c3f884a	0.011690209
127	0x3c8cbc1b	0.01717954
128	0x3ca78eb3	0.020453786
129	0xbd1d48e7	-0.038399603
130	0x3df53351	0.119726785
131	0x3dadf1b6	0.08493368
132	0x3cb3e80d	0.021961236
133	0xbc5db29a	-0.013531351
134	0xbd258ecf	-0.040419396
135	0x3dc7013d	0.09717033
136	0x3d8f0d18	0.06984919
137	0x3d9f830c	0.07788667
138	0x3d068d98	0.032849878
139	0x3d8bf03d	0.06832931
140	0x3c4a9441	0.012364448
141	0x3dcc4fd5	0.09976164
142	0xbd5c8f55	-0.05384763
143	0xbc6a25d9	-0.01429125
144	0xbd8dc2f1	-0.06921948
145	0x3b6d4088	0.0036201794
146	0xbdb860fe	-0.09002875
147	0x3c971de4	0.01844687
148	0xb8467658	-4.7317095e-05
149	0x3cc9827e	0.024598356
150	0xbba296c5	-0.004961821
151	0x3be4a3d0	0.006977536
152	0x3de01926	0.10942297
153	0x3d1e6b55	0.03867658
154	0x3d08e114	0.033417776
155	0xbdc87c57	-0.09789341
156	0xbd7a32fe	-0.061083786
157	0x3ce7cd22	0.028296057
158	0x3da54fcb	0.0807186
159	0x3c417ff2	0.01181029
160	0x3dac6077	0.08416837
161	0x3d8efaa4	0.069814
162	0x3dbd496a	0.09242518
163	0x3e0fdec9	0.1404983
164	0xbca98422	-0.020692889
165	0x3d6c45b1	0.05768365
166	0x3d7dc08d	0.06195121
167	0x3cb7f6b9	0.022456514
168	0xbd689466	-0.05678215
169	0xbd1aec3c	-0.037822947
170	0x3d5c872b	0.053839844
171	0xbd843c6a	-0.064568356
172	0xb93ba2b2	-0.00017894318
173	0x3d8e4edd	0.06948636
174	0xbd78a049	-0.060699735
175	0xbd72dc0d	-0.059291888
176	0x3ccb399f	0.02480775
177	0x3d9f3c40	0.07775164
178	0xbd19a643	-0.037512075
179	0x3e04904a	0.12945667
180	0xbd4071f2	-0.046983667
181	0x3c411d74	0.011786807
182	0xbd448792	-0.047980852
183	0xbdc7f6a1	-0.097638376
184	0xbd6b175c	-0.057395324
185	0xbde51b81	-0.111868866
186	0xbcbdc3d6	-0.02316467
187	0x3c8f51bc	0.017495029
188	0xbe037a2d	-0.12839575
189	0x3d4bd0f6	0.049759828
190	0x3d518dfb	0.051160794
191	0x3d318057	0.043335285
192	0x3dcd40b8	0.1002211
193	0xbd61dcc7	-0.05514219
194	0x3dd38c57	0.10329502
195	0xbd3aeece	-0.0456379
196	0x3dfa0d69	0.12209589
197	0x3b07f6df	0.0020746512
198	0xbdb1850b	-0.08667954
199	0x3d427d4e	0.04748278
200	0xbd9a7c66	-0.07543258
201	0xbc8a65b3	-0.016894197
202	0xbdc73655	-0.0972716
203	0xbd578d80	-0.05262518
204	0xbc7f1515	-0.015568991
205	0xbd828dfe	-0.06374739
206	0x3d8c6feb	0.06857284
207	0xbdada833	-0.08479347
208	0xbdf7b41b	-0.12094899
209	0x3ebaabe2	0.3645926
210	0x3c5cd360	0.01347813
211	0x3d225053	0.039627384
212	0x3cd8fab6	0.026486736
213	0xbd603356	-0.054736458
214	0x3e645d04	0.22301108
215	0x3d20a8cf	0.03922349
216	0x3e280051	0.1640637
217	0x3b5f1da1	0.003404476
218	0x3d169734	0.036765292
219	0x3cf7d375	0.030252198
220	0xbda90e6c	-0.08254704
221	0x3de1b696	0.11021154
222	0xbc5e020c	-0.013550293
223	0x3c0c0832	0.008546876
224	0xbc6fcb1e	-0.014635829
225	0x3d57bdb0	0.052671134
226	0x3da580ed	0.08081231
227	0xbc040822	-0.00805858
228	0x3d271301	0.040789608
229	0x3cb882da	0.022523332
230	0x3df84a3f	0.12123536
231	0x3ca383bf	0.019960282
232	0x3c3ff00c	0.0117149465
233	0xbdce8f32	-0.10085906
234	0xbdcf8415	-0.101326145
235	0x3c142557	0.009042106
236	0x3d2b31b9	0.041795466
237	0x3d55ee04	0.052228943
238	0xbc26bf64	-0.010177467
239	0x3d635824	0.05550398
240	0x3da8632a	0.08222039
241	0xbd7751ba	-0.060380675
242	0x3dd19960	0.10234332
243	0xba7284e2	-0.00092513685
244	0x3dafa41b	0.085762225
245	0xbe08a2ad	-0.13343306
246	0x3e014a48	0.12625992
247	0xbe043b7c	-0.12913316
248	0xbbf982d1	-0.0076144715
249	0xbe5156ec	-0.20443314
250	0xbdb91529	-0.09037239
251	0xbd48ad3a	-0.048993327
252	0x3d7ef70b	0.062247317
253	0xbd23dce4	-0.04000558
254	0x3dbea4bd	0.09308765
255	0x3ce6f301	0.028192045

model.2.bias f4 [256]
0	0x3d01997c	0.031640515
1	0x3b1837ca	0.0023226612
2	0x3cde50c9	0.02713813
3	0x3d843934	0.06456223
4	0x3dceefbd	0.1010432
5	0xbd0e51f6	-0.034746133
6	0x3d7efcd2	0.062252827
7	0xbbc16d71	-0.005902939
8	0x3ca3aeaa	0.019980747
9	0x3d1cd6d1	0.038290802
10	0x3da01939	0.07817311
11	0x3cc570d1	0.024101647
12	0x3d72ca53	0.059274983
13	0x3d6f3dcf	0.058408555
14	0xbca4fa66	-0.02013893
15	0xbcaca324	-0.021073885
16	0xbcdd7d6e	-0.027037349
17	0x3da07e33	0.078365706
18	0x3cf2b480	0.029627085
19	0xbcdd7711	-0.027034314
20	0xbd13bceb	-0.036068838
21	0x3d521034	0.051284984
22	0xbd7a63be	-0.061130278
23	0x3d428765	0.047492404
24	0xbcbbc43c	-0.02292072
25	0xbbdef897	-0.0068045366
26	0x3c3a6b2a	0.011378089
27	0x3d47601d	0.048675645
28	0xbd045aea	-0.032313265
29	0xbbd1b329	-0.0063995314
30	0x3bc64fab	0.0060519776
31	0xbd1bae1a	-0.038007833
32	0x3d7aac4f	0.061199483
33	0x3d93d847	0.07218986
34	0x3d2b0e15	0.041761477
35	0xbd10591c	-0.03524123
36	0xbcf35a27	-0.029706074
37	0x3d933563	0.07187917
38	0x3d588c31	0.052868072
39	0x3d4587e7	0.04822531
40	0x3d4eaf2f	0.050460037
41	0xbd025000	-0.031814575
42	0x3d79f52d	0.061024833
43	0x3dd161cc	0.102237314
44	0xbd632bc0	-0.055461645
45	0x3d6d9aeb	0.05800907
46	0x3d3caa43	0.04606081
47	0x3c70e4ba	0.01470297
48	0x3d1ed9d6	0.038781963
49	0x3d17cd8f	0.03706127
50	0xbd1b59c9	-0.037927423
51	0xbd038c16	-0.03211602
52	0x3c0f3b9f	0.008742242
53	0x3ce6bb47	0.028165473
54	0xbc13fad5	-0.009031971
55	0xbc6efbd5	-0.014586409
56	0x3c2cdecf	0.010551169
57	0x3dbea3c5	0.0930858
58	0x39fa40a3	0.00047731874
59	0xbd8278e2	-0.06370713
60	0x3c0eb3e4	0.008709881
61	0x3ca261aa	0.01982196
62	0xbc842b0d	-0.01613381
63	0xbd6a10fe	-0.05714511
64	0x3cbcf004	0.023063667
65	0x3d968bfb	0.07350918
66	0x3d982963	0.07429769
67	0x3b414b50	0.0029494353
68	0xbba5ad99	-0.005056095
69	0x3dab031b	0.08350202
70	0x3ccd2ad4	0.025044836
71	0x3d346c06	0.04404833
72	0x3bb0cac9	0.0053952676
73	0x3d359857	0.044334736
74	0x3d070ec8	0.03297308
75	0xbbe3b915	-0.0069495537
76	0xbc30e1c5	-0.010796015
77	0x3ccb7457	0.024835749
78	0x3da2525c	0.07925865
79	0xbc6f0912	-0.014589565
80	0x3d2f93c7	0.04286554
81	0x3d2d52aa	0.042315163
82	0x3db40647	0.0879026
83	0x3d6c1833	0.057640266
84	0x3d35aae8	0.044352442
85	0x3d0e684b	0.03476743
86	0x3ce0c425	0.027437279
87	0x3d9b85e7	0.07593899
88	0x3d93387a	0.071885064
89	0x3cfd3e28	0.030913427
90	0x3c010a9c	0.007876065
91	0x3d45f50d	0.0483294
92	0x3d0a71e3	0.033800017
93	0x3cbf43df	0.023347793
94	0x3d7ec1ff	0.062196728
95	0x3cd55631	0.026042076
96	0x3d065a98	0.03280124
97	0xbcb12fd8	-0.021629259
98	0x3da1893e	0.07887505
99	0x3d763ec8	0.060118467
100	0x3da6d4b9	0.081460424
101	0xbcaf5316	-0.021401923
102	0xbd3390b0	-0.043839157
103	0x3cb8843e	0.022523995
104	0x3c089fec	0.00833891
105	0xbc278ca5	-0.010226403
106	0x3cc9444d	0.024568701
107	0xbb49960e	-0.0030759606
108	0x3da785c4	0.08179811
109	0xbc134250	-0.008987978
110	0xbd0d29b3	-0.034463596
111	0x3d046308	0.032321006
112	0x3d969ab7	0.07353728
113	0xbccb6695	-0.024829188
114	0xbce448bd	-0.027866716
115	0xbc4074a2	-0.011746557
116	0xbd347974	-0.04406114
117	0xbbaa80bd	-0.005203335
118	0xbcdb697b	-0.026783695
119	0x3a4a046b	0.0007706347
120	0x3c79817c	0.015228625
121	0x3cc81a4b	0.0244266
122	0xbb4983f0	-0.0030748807
123	0xbd628390	-0.05530125
124	0x3d0fc1fa	0.0350971
125	0x3d83efb4	0.06442204
126	0x3b7d1d18	0.0038622078
127	0x3defb863	0.11705091
128	0x3da62f68	0.08114511
129	0xbbe0bb29	-0.0068582487
130	0xbd00b70e	-0.031424575
131	0x3d922118	0.071352184
132	0xbd90b01d	-0.07064841
133	0x3d03fb25	0.032221932
134	0x3c2f0dc3	0.010684433
135	0xbd577ce7	-0.05260935
136	0x3d496511	0.04916865
137	0x3cf50459	0.0299093
138	0xbd1c9e21	-0.03823674
139	0xbd1812da	-0.037127353
140	0x3c0b7085	0.008510713
141	0x3d2d88a7	0.04236665
142	0x3d884283	0.06653311
143	0x3d5742e4	0.052554026
144	0xbc972c18	-0.018453643
145	0x3d84c083	0.06482031
146	0x3cb3b06e	0.021934714
147	0xbc43129c	-0.011906292
148	0xbc0a17ac	-0.008428495
149	0xbcc22d8e	-0.023703363
150	0x3d53739f	0.051623937
151	0x3d699c59	0.05703387
152	0xbc6b34a3	-0.014355811
153	0x3db54f25	0.08852986
154	0xbd066fbe	-0.03282141
155	0x3da12d5f	0.07869982
156	0xbd33fb75	-0.04394098
157	0xbd7e0ffd	-0.062026966
158	0x3d1e1580	0.038594723
159	0xbc05b552	-0.008160906
160	0x3d87e588	0.066355765
161	0xbcae49b7	-0.021275384
162	0xbcf0ff83	-0.029418712
163	0x3c7d96d2	0.015477853
164	0x3d394166	0.045228384
165	0xbb3869df	-0.0028139276
166	0x3c9fa31d	0.019486958
167	0x3d138299	0.03601322
168	0xbc1643f8	-0.009171478
169	0x3bb6759b	0.005568219
170	0xbceebe9c	-0.029143624
171	0x3c66cd08	0.014086969
172	0x3d3cf957	0.046136227
173	0x3d983381	0.074316986
174	0x3c0d771c	0.008634355
175	0x3c5c0e6e	0.013431175
176	0x3d5a6bdc	0.05332552
177	0x3d450505	0.04810049
178	0xbcc6f823	-0.024288243
179	0xbbb01c7c	-0.0053744894
180	0x3cd3e397	0.02586536
181	0xbd0e229e	-0.034700982
182	0xbc0c0d9f	-0.008548169
183	0x3b427aa1	0.0029675143
184	0x3d312e38	0.04325697
185	0x3a80c390	0.0009823907
186	0xbc8dcdd6	-0.017310064
187	0xbbcdf44c	-0.006285226
188	0xbb328b36	-0.002724362
189	0x3bfc63c5	0.007702323
190	0x3d7eaf89	0.062179122
191	0xbc7211d6	-0.01477476
192	0xbcdc152a	-0.02686556
193	0x3cc322ea	0.02382036
194	0x3c801731	0.015636059
195	0x3cd1c4b3	0.025606489
196	0x3d31279e	0.043250673
197	0xbd805123	-0.062654756
198	0x3d2bad0b	0.041913074
199	0x3b2a539f	0.0025989783
200	0x3c3546a9	0.01106421
201	0x3d8e1ec7	0.06939464
202	0xbc184974	-0.009294856
203	0x3dbc9021	0.09207178
204	0xbc083e60	-0.008315653
205	0x3d729b52	0.059230156
206	0xbd18a0c7	-0.037262704
207	0xbaa51009	-0.001259328
208	0x3d03734a	0.03209237
209	0xbd434cd8	-0.047680706
210	0x3bf6897b	0.007523713
211	0xbc351ed3	-0.011054712
212	0x3c72e1b0	0.014824316
213	0x3d1975c7	0.037465837
214	0x3cbe0bcb	0.023198983
215	0xbbd8c870	-0.006615691
216	0x3cd97471	0.026544781
217	0x3d4b9acd	0.049708176
218	0x3d78028a	0.060549296
219	0x3976559f	0.00023492285
220	0x3d21aba6	0.039470337
221	0x3d6a9ad3	0.057276558
222	0xbc1d07eb	-0.009584407
223	0x3b875246	0.004129681
224	0xbd309d39	-0.04311869
225	0x3ba29d0a	0.004962568
226	0x3c97934b	0.018502852
227	0x3c6e5f60	0.014549106
228	0x3b9cf968	0.0047904737
229	0x3d478418	0.04870996
230	0xbcf464be	-0.029833194
231	0x3da18552	0.07886757
232	0x3d619016	0.05506905
233	0x3b9f98a8	0.004870493
234	0x3ce35445	0.027750144
235	0x3dd099f7	0.101856165
236	0xbcfe2244	-0.031022198
237	0x3d42e81d	0.04758464
238	0xbcad035f	-0.021119772
239	0xbca2f771	-0.01989338
240	0xbc6d4b75	-0.014483322
241	0xbd0123e5	-0.031528372
242	0x3c0d475e	0.008622972
243	0xbc257cb9	-0.010100537
244	0xbca3b5c1	-0.019984128
245	0x3d3a2432	0.045444675
246	0x3cb6b114	0.022301234
247	0x3bf413d3	0.0074486523
248	0x3c8d4812	0.01724628
249	0xbd5dc050	-0.05413848
250	0x3c41a2a2	0.01181856
251	0x3d49c0b5	0.049256045
252	0xbceaf241	-0.028679969
253	0xbc652b00	-0.013987303
254	0x3d5e2c1a	0.054241277
255	0x3cbf292f	0.023335068

model.4.weight f4 [37, 256]
0	0xbcb66312	-0.022264037
1	0xbdb32d45	-0.08748869
2	0xbded909a	-0.11599846
3	0xbd81697b	-0.06318947
4	0x3c5209af	0.012819692
5	0x3d5c9a04	0.05385782
6	0x3e23be2c	0.15990514
7	0xbc939a1d	-0.018017823
8	0xbcbb4ab9	-0.022862779
9	0x3cca6ff9	0.024711596
10	0xbdba754a	-0.09104402
11	0x3e3ccd4e	0.18437693
12	0x3d5868aa	0.05283419
13	0xbc3174e8	-0.010831095
14	0x3d8e91f7	0.06961434
15	0x3dcda114	0.10040489
16	0x3da397b2	0.07987918
17	0x3d9d2eb0	0.076749206
18	0x3d018466	0.031620406
19	0xbe2df38f	-0.16987441
20	0xbdf87366	-0.121313855
21	0x3d1f0849	0.03882626
22	0x3c70caa2	0.014696749
23	0xbc917e6b	-0.017760476
24	0x3c839989	0.016064422
25	0x3d555b43	0.052088987
26	0xbcfc1a99	-0.030774402
27	0xbc6c1b17	-0.014410756
28	0xbd1c438b	-0.03815035
29	0x3e1842d0	0.14869237
30	0xbd3b42b8	-0.045717925
31	0x3c8178b0	0.015804619
32	0xbd84978c	-0.06474218
33	0xbd5c30bd	-0.053757418
34	0x3e044ea7	0.12920628
35	0x3d8eec9b	0.06978723
36	0xbd09aac9	-0.03361014
37	0xbd933fae	-0.0718988
38	0xbe023054	-0.12713748
39	0xbdba8c1b	-0.09108754
40	0xbd0cd4bf	-0.034382578
41	0xbceed560	-0.02915448
42	0x3deb9427	0.11502867
43	0x3b919c47	0.0044436785
44	0xbc9377e6	-0.018001508
45	0xbb9a1dfa	-0.0047032805
46	0xbdf8b23e	-0.12143372
47	0xbdf5741d	-0.119850375
48	0x3d958392	0.07300486
49	0x3d77d2c4	0.060503736
50	0xbd73d586	-0.059529804
51	0x3d940156	0.07226817
52	0x3be47726	0.0069722114
53	0x3db52a95	0.088460125
54	0x3a6d4b13	0.00090520194
55	0x3cbcf3b6	0.02306543
56	0x3cfa312f	0.03054103
57	0x3d930e47	0.071804576
58	0x3c929aeb	0.017896136
59	0x3b625a4b	0.0034538682
60	0xbce541ba	-0.027985442
61	0xbdeed8e3	-0.116624616
62	0xbe09da4a	-0.13462177
63	0x3cedf4ff	0.029047487
64	0x3d1bc1c4	0.038026586
65	0x3e241b4a	0.16026035
66	0xbce3903c	-0.027778737
67	0x3af3f651	0.0018612837
68	0xbd27e13b	-0.04098628
69	0x3e15e64f	0.14638637
70	0x3ce844dc	0.028353147
71	0xbe11a5a8	-0.14223349
72	0x3d5ee609	0.054418597
73	0xbd0f1ba4	-0.03493847
74	0x3c8230b4	0.015892364
75	0x3b82f73d	0.0039967583
76	0xbd767b00	-0.060175896
77	0xbe07c5f4	-0.13259107
78	0xbd355453	-0.04426987
79	0x3de9a529	0.11408455
80	0xbd10d0d5	-0.035355408
81	0xbdd25765	-0.102705754
82	0xbdd2cf18	-0.10293406
83	0xbe059e3e	-0.13048646
84	0xbc4861dc	-0.012230363
85	0x3c4c7155	0.012478192
86	0x3af5028b	0.0018692774
87	0x3d9e14ef	0.077188365
88	0x3d28d92d	0.04122274
89	0x3d23075e	0.039801948
90	0x3d0a74a9	0.033802662
91	0x3c73c562	0.014878603
92	0xbd2ca145	-0.042145986
93	0xbde9a7ac	-0.11408934
94	0xbd24b2a7	-0.04020944
95	0x3e2d5d68	0.16930163
96	0xbbb5f343	-0.0055526807
97	0xbd24c446	-0.040226243
98	0x3d86ca65	0.065815724
99	0xbd6e9156	-0.058244072
100	0x3db695f1	0.08915318
101	0xbcfac7de	-0.030612882
102	0x3d32e27c	0.043673024
103	0xbcff9a63	-0.031201547
104	0xbc974e18	-0.018469855
105	0xbaf5dbea	-0.0018757556
106	0xbdbf2aa0	-0.09334302
107	0xbca367bb	-0.019946923
108	0x3e2ee787	0.17080508
109	0x3d730caa	0.05933825
110	0xbe113520	-0.14180422
111	0x3bf194c1	0.007372469
112	0x3e035f67	0.12829362
113	0xbce76405	-0.028245935
114	0xbd884087	-0.066529326
115	0xbd741cbb	-0.059597712
116	0x3df26b89	0.11836917
117	0xbdc21263	-0.09476163
118	0x3d099f09	0.033598933
119	0xbc53afdb	-0.012920345
120	0x3db89fce	0.09014855
121	0xbe0a345f	-0.1349654
122	0x3d337ee2	0.043822177
123	0x3cb4cdd8	0.02207081
124	0x3ce19075	0.027534703
125	0x3de09d4b	0.10967501
126	0xbde54add	-0.1119592
127	0x3db1f000	0.086883545
128	0x3dc9c2da	0.09851618
129	0x3ce93685	0.02846838
130	0xbd3fa318	-0.046786398
131	0xbda2c9fe	-0.07948683
132	0xbd92d1ec	-0.07168946
133	0xbd4de04d	-0.050262738
134	0x3d4c4b44	0.049876466
135	0xbd37e14e	-0.0448926
136	0xbd2a29f4	-0.041543916
137	0x3cc2d36d	0.023782456
138	0x3ded1384	0.11575988
139	0xbdd9bbce	-0.10631524
140	0xbd8b0380	-0.06787777
141	0xbdcf5868	-0.10124284
142	0x3d430c9d	0.04761945
143	0xbd2cd591	-0.04219586
144	0x3d1cfe8d	0.038328696
145	0x3d479d21	0.048733834
146	0x3cfdf74a	0.031001706
147	0xbcdc436a	-0.026887614
148	0xbe27eecc	-0.16399688
149	0xbd0562ed	-0.032565046
150	0xbdf56705	-0.1198254
151	0xbdba59a6	-0.0909913
152	0x3c6c3a96	0.014418265
153	0xbd251a74	-0.04030843
154	0xbcc47eaa	-0.02398618
155	0x3dc060ca	0.09393461
156	0xbcae5f53	-0.021285689
157	0x3ba9910a	0.0051747607
158	0x3ce7f933	0.02831707
159	0x3d8f98a4	0.07011536
160	0x3c34e539	0.011040979
161	0x3d995551	0.07486976
162	0xbdd671cf	-0.10470926
163	0x3c843d47	0.0161425
164	0x3d929c62	0.07158734
165	0x3bf754d5	0.0075479546
166	0xbc615dc6	-0.0137552675
167	0xbdcc6741	-0.099806316
168	0x3d068e4d	0.032850552
169	0x3d0c7eb7	0.034300532
170	0x3c096501	0.008385898
171	0xbca89019	-0.020576524
172	0xbdff931f	-0.12479233
173	0xbda9e0b0	-0.08294809
174	0x3e09aa00	0.13443756
175	0xbd02f4bc	-0.03197168
176	0x3dac57f1	0.08415211
177	0xbbef330f	-0.007299788
178	0x3d357468	0.044300467
179	0x3d3cc62c	0.04608743
180	0xbbb7dbc4	-0.005610915
181	0x3dc1334a	0.09433611
182	0x3d870d8c	0.06594381
183	0xbd282102	-0.041047104
184	0xbd955cfc	-0.07293126
185	0xbcea62f0	-0.02861163
186	0xbe0ae7ee	-0.13565037
187	0xbdc3ba34	-0.09557
188	0x3d27b1f6	0.0409412
189	0xbb6e2fc2	-0.0036344384
190	0xbdbf4264	-0.09338835
191	0x3cec6fda	0.028861929
192	0x3c2e026d	0.010620696
193	0x3d1054ca	0.03523711
194	0x3d857a28	0.0651744
195	0x3dffdbdc	0.12493107
196	0x3de74c44	0.112938434
197	0x3e090dab	0.1338412
198	0xbd7989ed	-0.060922552
199	0x3b934e02	0.0044953832
200	0x3bfe8c62	0.0077682
201	0x3dc048c6	0.093888804
202	0xbb22cb97	-0.0024840587
203	0xbccd46ca	-0.025058169
204	0xbd66a94a	-0.05631379
205	0x3d896bde	0.06710027
206	0x3d109a79	0.035303567
207	0xbdc140d3	-0.09436192
208	0xbd92120b	-0.07132348
209	0x3d43cba4	0.04780163
210	0xbd187958	-0.037225097
211	0xbd91fdaf	-0.071284644
212	0xbdb22747	-0.08698898
213	0xbdb69e7c	-0.08916947
214	0x3dbe75ab	0.09299787
215	0xbe212a72	-0.15738848
216	0x3ca1660d	0.019701982
217	0x3d4f852e	0.05066412
218	0x3b99861c	0.0046851765
219	0xbccc4208	-0.02493383
220	0xbd83ef67	-0.06442147
221	0xbd0d9c44	-0.034572855
222	0x3c9d78a9	0.019222574
223	0x3d392025	0.04519667
224	0xbda0b61e	-0.07847236
225	0xbd735d70	-0.05941528
226	0xbd8ca84a	-0.06868036
227	0xbc942b02	-0.018086914
228	0x3c75e5cd	0.015008402
229	0x3dd12d5e	0.10213731
230	0xbd39fcc3	-0.045407068
231	0x3dedc70b	0.1161023
232	0xbd83fa69	-0.06444246
233	0x3b20e9a4	0.0024553323
234	0x3cf3b09b	0.029747298
235	0x3db1e8e6	0.08687
236	0xbd229dc3	-0.039701235
237	0x3c7495df	0.01492831
238	0x3c7c2472	0.015389549
239	0x3c175ec4	0.0092389025
240	0x39fc1f35	0.00048088437
241	0x3d0d08a5	0.034432072
242	0xbdad00c7	-0.08447414
243	0xbd84379d	-0.0645592
244	0xbd8c60ad	-0.06854377
245	0xbd8986e8	-0.067151845
246	0x3c50a5db	0.0127348555
247	0xbe02ae58	-0.1276182
248	0xbd4e4d6f	-0.050366815
249	0xbd54c83b	-0.051948767
250	0x3dd7a12d	0.10528789
251	0xbd2d5175	-0.04231401
252	0x3d424199	0.04742584
253	0x3d3d0447	0.046146657
254	0x3c0d6170	0.008629188
255	0x3d6e3b8f	0.05816227

model.4.bias f4 [37]
0	0x3d288334	0.04114075
1	0xbd0112c6	-0.031512044
2	0xbcfaa76b	-0.03059741
3	0xbd01ccb3	-0.031689357
4	0xbc3c7306	-0.011502033
5	0xbd2be6fa	-0.041968323
6	0xbd4e6a38	-0.050394267
7	0xbc92d840	-0.017925382
8	0x3d0ca92b	0.03434102
9	0xbd5988ba	-0.05310891
10	0xbd3a34b9	-0.045460436
11	0x3cfd5cd1	0.030928047
12	0x3bf41b93	0.007449576
13	0x3c1b6c33	0.009486246
14	0xbc0973c7	-0.00838942
15	0xbd861bd0	-0.065482736
16	0xbd0613af	-0.032733615
17	0xbc7625ea	-0.015023688
18	0xbd99cc92	-0.07509722
19	0xbd254aae	-0.040354423
20	0xbcfadcdc	-0.030622892
21	0x3d044baa	0.03229872
22	0x3b82a4f8	0.003986951
23	0xbbdfa57a	-0.0068251463
24	0xbd0740b1	-0.03302068
25	0xbcaf05eb	-0.021365127
26	0xbc91c0eb	-0.017792186
27	0xbc24237c	-0.010018226
28	0xbc9b78ef	-0.018978564
29	0x3cf5ce78	0.030005679
30	0xbd0a8198	-0.033814996
31	0xbd0561c4	-0.03256394
32	0xbd52ff4a	-0.051512994
33	0xbd3ad7d0	-0.04561597
34	0xbd8516a4	-0.06498459
35	0x3d26a31d	0.0406829
36	0x3cdd0de4	0.026984163
