models/generator_sepsis.pth (torch, 381185 bytes, 6 tensors)

model.0.weight f4 [256, 74]
0	0x3d352396	0.04422339
1	0xbdef72e1	-0.11691833
2	0x3cf27e23	0.029601162
3	0xbcdfe552	-0.027331028
4	0x3b5ef51d	0.003402061
5	0x3d2c4b89	0.042064223
6	0x3d1f5558	0.03889975
7	0xbdaaa670	-0.08332527
8	0xbdf1deb8	-0.11810058
9	0xbdd45266	-0.10367279
10	0x3dbbc20a	0.091678694
11	0x3e242fad	0.16033812
12	0x3d94c077	0.07263272
13	0x3d971074	0.07376185
14	0x3e0b3906	0.13595971
15	0xbc3f430f	-0.011673703
16	0xbd410fd4	-0.047134236
17	0x3c108f5b	0.008823241
18	0x3d6b48f4	0.05744262
19	0xbcea03e1	-0.028566303
20	0x3e15a49a	0.14613572
21	0xbd0416dc	-0.032248363
22	0x3dc1c789	0.094618864
23	0xbd24e4e6	-0.040257357
24	0x3e440e51	0.19146086
25	0x3d752690	0.05985123
26	0x3d6a7601	0.057241444
27	0x3dabf577	0.08396428
28	0x3c46bd7d	0.012130138
29	0x3cda4ece	0.026648905
30	0xbe0de525	-0.13856943
31	0x3db8571c	0.0900099
32	0x3d4c5df6	0.049894296
33	0xbe2497b2	-0.16073492
34	0xbb16e4ca	-0.0023024553
35	0xbdd67700	-0.10471916
36	0xbd6e1efc	-0.058135018
37	0x3de36479	0.11103148
38	0x3be4893e	0.0069743684
39	0x3c2ba2c1	0.010475815
40	0x3e078b8a	0.13236824
41	0xbd025506	-0.031819366
42	0xbc87d450	-0.01658073
43	0x3d40139d	0.046893705
44	0x3b8ee493	0.0043607443
45	0x3ca1789d	0.019710833
46	0xbd14a96a	-0.03629438
47	0xbd0ad7f4	-0.033897355
48	0xbd1fed16	-0.039044462
49	0x3cb12afc	0.021626942
50	0x3df129fd	0.11775587
51	0x3b5b7082	0.0033483808
52	0xbcca86b0	-0.024722427
53	0x3ca8cef6	0.0206065
54	0x3ddbe197	0.10736387
55	0xbcb300ab	-0.021850904
56	0x3e04cd44	0.12968928
57	0x3daddcc2	0.08489372
58	0x3dd8f6d4	0.10593954
59	0x3da1e8f0	0.079057574
60	0x3dac4745	0.08412031
61	0x3ddd0f53	0.107939385
62	0xbd942bfc	-0.07234952
63	0xbc738e3c	-0.014865454
64	0x3d32f3a7	0.043689396
65	0x3dd93fde	0.10607885
66	0xbcc016c4	-0.023448355
67	0x3d7c2138	0.061555117
68	0x3e00efb2	0.12591437
69	0xbc63ff67	-0.013915873
70	0x3dcb07db	0.09913608
71	0x3d991af7	0.07475846
72	0x3ccacd64	0.024756141
73	0x3db7e4be	0.08979176
74	0x3d2cd2f7	0.04219338
75	0x3e1a9f9d	0.1509995
76	0x3c33b105	0.010967498
77	0x3e2df77f	0.16988944
78	0x3b6653d4	0.003514518
79	0xbbc3c9b0	-0.0059749708
80	0x3db1200c	0.086486906
81	0x3e05f345	0.13081081
82	0x3de13f62	0.109984174
83	0xbdc7d1ee	-0.09756838
84	0x3c66c65e	0.01408538
85	0x3d72f3ff	0.059314724
86	0x3d0d1722	0.03444589
87	0xbdf20bef	-0.118186824
88	0xbe2373e9	-0.15962185
89	0x3d8027cd	0.062575914
90	0xbc3d7490	-0.011563435
91	0xbd444ff4	-0.04792781
92	0x3d675358	0.056475967
93	0xbdac35d0	-0.084087014
94	0x3de4b045	0.11166433
95	0xbd738ac7	-0.05945852
96	0x38d8ab1c	0.00010331554
97	0xbe14f506	-0.14546594
98	0xbd1e84b8	-0.03870079
99	0xbd5f07d1	-0.054450814
100	0x3d1b90b4	0.037979797
101	0xbbed52a4	-0.0072425175
102	0xbe278847	-0.1636058
103	0xbd85251b	-0.06501218
104	0xbd8896da	-0.06669398
105	0x3cfb3d74	0.030668952
106	0x3dfcac11	0.123375066
107	0x3da24e6a	0.079251125
108	0xbd58baee	-0.052912645
109	0xbdd0f399	-0.102027126
110	0xbd885572	-0.066569224
111	0x3b3773d7	0.002799263
112	0x3df63fac	0.12023863
113	0xbd40f706	-0.04711058
114	0xbd9e9002	-0.07742311
115	0xbd4ff75c	-0.05077301
116	0x3d4fc876	0.050728284
117	0x3d67263b	0.056432944
118	0x3d2d59b9	0.042321894
119	0x3d9813bb	0.07425638
120	0x3ce9e710	0.028552562
121	0x3d6de882	0.058083065
122	0xbb00a94d	-0.001963216
123	0x3c9887d5	0.018619457
124	0x3df15be4	0.11785105
125	0xbd61e19d	-0.055146802
126	0xbc59fe2f	-0.013305231
127	0x3d3e1ff8	0.046417207
128	0x3c9fea01	0.019520761
129	0xbd267e7f	-0.04064798
130	0x3ce3d3fc	0.027811043
131	0x3d0e9d04	0.03481771
132	0xbb608d72	-0.0034263995
133	0xbcb7a808	-0.02241899
134	0x3cf83988	0.03030087
135	0x3e185925	0.14877756
136	0xbcc8d572	-0.024515841
137	0xbc5c418c	-0.013443362
138	0x3ddc9485	0.10770515
139	0x3e0677f5	0.13131697
140	0xbd194f9f	-0.03742945
141	0x3b5a390d	0.0033298165
142	0x3d34a6b0	0.044104278
143	0x3e0aadad	0.13542815
144	0x3dafa7e5	0.08576945
145	0x3df7c774	0.120985895
146	0xbca45adb	-0.020062855
147	0x3d724404	0.059146896
148	0x3cc05346	0.023477208
149	0xbe01d7fa	-0.12680045
150	0xbe288146	-0.16455564
151	0xbd18f0ce	-0.037339024
152	0x3d93ef9a	0.07223435
153	0xbe117b0d	-0.14207096
154	0xbce89748	-0.028392449
155	0x3d5d9935	0.054101188
156	0x3ddb1364	0.10697058
157	0x3d34659d	0.04404222
158	0xbd9d2563	-0.076731466
159	0x3d75629d	0.059908498
160	0x3dca19c3	0.09868195
161	0xbd54b5ae	-0.051931076
162	0x3e210eea	0.15728346
163	0x3d823fba	0.06359811
164	0xbb82de7f	-0.0039938088
165	0x3a94b05c	0.0011344063
166	0x3d1cd5d0	0.038289845
167	0xbd9e5394	-0.07730785
168	0x3d5e570f	0.054282244
169	0x3d7aa125	0.061188836
170	0x3c4539f7	0.012037746
171	0x3d8859df	0.066577666
172	0x3d4d9cf5	0.050198514
173	0xbd50aacb	-0.05094413
174	0xbdfcd14e	-0.12344609
175	0x3dbcc4c1	0.09217215
176	0x3d553313	0.05205066
177	0xbdccaf95	-0.09994427
178	0xbd89042c	-0.06690249
179	0x3e14a020	0.14514208
180	0xbcb98ec0	-0.022651076
181	0xbe0bd70b	-0.13656251
182	0x3dea07d4	0.11427274
183	0x3d266b16	0.04062947
184	0x3c14209f	0.009040981
185	0x3d1f1f0e	0.038847975
186	0xbcb702f9	-0.022340285
187	0x3d317484	0.04332401
188	0x3c00a245	0.007851188
189	0x3da2f7af	0.07957398
190	0xbc580e1f	-0.0131869605
191	0x3da326c9	0.07966382
192	0x3c10bef1	0.0088345865
193	0x3dbf87de	0.093520865
194	0x3da1c5f9	0.078990884
195	0xbd0700d0	-0.03295976
196	0x3e169ea9	0.14708962
197	0x3dba4a78	0.09096235
198	0x3d28ee24	0.041242734
199	0x3ca69f0b	0.02033951
200	0x3d5bbd98	0.053647608
201	0xbc82dcc3	-0.015974408
202	0x3dcf9605	0.10136036
203	0x3dd68804	0.10475162
204	0xbd1bcb51	-0.038035695
205	0xbdb5de05	-0.088802375
206	0xbd539c2e	-0.051662616
207	0x3d4ce579	0.05002353
208	0x3df29f22	0.118467584
209	0x3dc71a74	0.097218424
210	0x3d8e9919	0.06962795
211	0x3cad0955	0.021122614
212	0x3e14a634	0.14516526
213	0x3db78b21	0.089620836
214	0xbd7f9c5b	-0.06240497
215	0x3dc9c8ba	0.09852739
216	0x3d9bead4	0.07613149
217	0xbcb63d1c	-0.022245936
218	0x3ddc2af6	0.10750382
219	0x3d66b056	0.05632051
220	0x3e1127a9	0.14175285
221	0xbcf13be6	-0.029447507
222	0x3e2a9c35	0.16661151
223	0xbd2f3902	-0.042778976
224	0x3bbb4f17	0.0057162154
225	0xbdc5a585	-0.09650711
226	0xbd074d31	-0.0330326
227	0x3ce779fe	0.028256413
228	0xbd4e154d	-0.050313283
229	0x3c2e1b1d	0.0106265815
230	0x3e266fc1	0.16253568
231	0x3e1d3e2f	0.15355752
232	0xbddd2542	-0.10798122
233	0xbe0da6db	-0.13833182
234	0x3d96ff63	0.0737293
235	0x3cdcb495	0.026941577
236	0x3c109578	0.008824699
237	0x3d511222	0.051042683
238	0xbc923bec	-0.017850839
239	0xbc96e942	-0.018421773
240	0x3da136f9	0.07871813
241	0x3d184373	0.0371737
242	0xbd2df9fe	-0.04247474
243	0xbca9692f	-0.020680038
244	0x3ddbf856	0.10740726
245	0xbd981cfc	-0.07427403
246	0x3dd4d111	0.10391439
247	0xbc2e3398	-0.010632418
248	0x3e336a16	0.17520937
249	0xbdf11958	-0.11772412
250	0xbcbb22a4	-0.022843666
251	0xbdbbfac6	-0.091786906
252	0x3cb31c12	0.02186397
253	0x3ddf6956	0.10908763
254	0xbd41c97c	-0.04731129
255	0xbdd2e252	-0.102970734

model.0.bias f4 [256]
0	0x3e09c137	0.13452612
1	0x3ce5a9a8	0.028035
2	0x3bed46a7	0.0072410884
3	0x3e004219	0.12525214
4	0xbbddb31f	-0.0067657377
5	0xbd52509e	-0.051346414
6	0x3bf14c41	0.0073638265
7	0x3e031225	0.1279989
8	0x3dd75c56	0.105156586
9	0x3d9979d0	0.07493937
10	0x3bf4abdf	0.0074667777
11	0x3e249bc4	0.16075045
12	0x3dc0ad14	0.09408012
13	0x3cc08aa6	0.023503613
14	0x3d79fe47	0.061033513
15	0xbd033abc	-0.032038435
16	0xbc857b2d	-0.016294086
17	0x3d76b08b	0.06022696
18	0xbaff0933	-0.0019457698
19	0x3d0ebaf0	0.034846246
20	0x3dfbcf8e	0.12295447
21	0x3dc7f014	0.09762588
22	0x3c6bf6c1	0.014402092
23	0xbd14e45e	-0.0363506
24	0x3d982975	0.07429782
25	0x3d2e500c	0.042556807
26	0x3c8fed87	0.017569317
27	0x3d8fe960	0.070269346
28	0xbd7b1921	-0.06130326
29	0x3d654876	0.055977307
30	0x3e074c04	0.13212591
31	0x3d62e9d9	0.055398796
32	0xbd312cc8	-0.043255597
33	0xbd387ca1	-0.04504073
34	0xbc479d1f	-0.012183457
35	0xbdaaf464	-0.08347395
36	0x3d813e43	0.063107036
37	0x3d481611	0.04884917
38	0x3d821c40	0.063530445
39	0xbd06ab21	-0.032878045
40	0x3c69d7cb	0.01427264
41	0x3dde3146	0.10849242
42	0x3e04428e	0.12916014
43	0x3d8d9ccb	0.069146715
44	0x3c81c9f8	0.015843377
45	0xbc924e80	-0.017859697
46	0xbcef7434	-0.029230215
47	0x3d0148cc	0.031563565
48	0x3cb18a91	0.021672519
49	0x3d43192d	0.04763143
50	0x3b35be64	0.002773189
51	0x3b2337d1	0.0024905095
52	0x3d6afa6f	0.05736774
53	0x3cd43adf	0.025906978
54	0x3de6cfbb	0.1127009
55	0xbca81ec9	-0.020522492
56	0x3e0c2ebc	0.13689703
57	0xbbb3fa07	-0.005492452
58	0xbd1425c0	-0.036168814
59	0xbd899b1f	-0.0671904
60	0xbc745be0	-0.014914483
61	0x3c2aa726	0.010415828
62	0xbc20fdec	-0.009826165
63	0xbcb5e789	-0.022205131
64	0xbd6bc403	-0.05755998
65	0xbb9f1c4a	-0.0048556672
66	0x3dd25c0c	0.10271463
67	0x3de79d43	0.11309292
68	0x3c6b25b3	0.01435225
69	0xbcd7b8db	-0.026333263
70	0xbd38c0c7	-0.04510572
71	0x3c98082c	0.018558584
72	0x3ca26b6c	0.019826613
73	0xbaccb88c	-0.0015618964
74	0xbd8d0bb3	-0.06886997
75	0x3dff8640	0.12476778
76	0x3d73b94e	0.059502892
77	0xbd5e06e0	-0.054205775
78	0x3d136f89	0.03599504
79	0x3c891e42	0.01673806
80	0xbb1d8155	-0.0024033387
81	0x3e04a704	0.12954336
82	0x3ca42893	0.020038879
83	0xbc83142e	-0.016000833
84	0x3c02a12c	0.007972997
85	0x3e06fc24	0.13182122
86	0x3dcc373b	0.09971472
87	0x3de199ab	0.11015638
88	0x3c413f61	0.011794896
89	0x3d5dd88f	0.054161604
90	0x3cfb8142	0.030701283
91	0x3d43ff93	0.047851156
92	0x3db191b9	0.086703725
93	0xbdac8d5a	-0.08425398
94	0x3dc07768	0.09397775
95	0x3d863570	0.06553161
96	0xbc9f08fb	-0.019413462
97	0xbcd7f94a	-0.026363987
98	0x3d9a4303	0.07532313
99	0x3d833ea7	0.06408434
100	0xbd0deda0	-0.034650445
101	0x3df56dea	0.11983855
102	0xbd4b5aa3	-0.049646985
103	0x3db6e49c	0.089303225
104	0x3df624fc	0.12018773
105	0x3dfe0537	0.124033384
106	0x3e01c190	0.12671494
107	0x3d113675	0.035452325
108	0x3cc24f91	0.02371958
109	0xbd2a9a61	-0.041651133
110	0x3dd3357a	0.10312934
111	0xbb96fcdf	-0.0046077813
112	0xbd3c90f5	-0.04603668
113	0x3d96ce3d	0.073635556
114	0x3d7ab216	0.061204992
115	0x3dca66f4	0.09882918
116	0x3d6ac8d2	0.057320423
117	0x3daa00f9	0.08300967
118	0xbd8cfbf8	-0.06883997
119	0x3b0cf260	0.0021506771
120	0x3d785229	0.06062523
121	0x3c359949	0.011083909
122	0xbd8f6b7f	-0.07002925
123	0x3d68ab46	0.056803964
124	0xbb9e9cc5	-0.0048404657
125	0xbc249421	-0.010045082
126	0x3e0bba5b	0.13645308
127	0x3d16e619	0.036840532
128	0x3d24ada6	0.040204667
129	0xbd95ceac	-0.0731481
130	0x3d402e4c	0.046919152
131	0xbd2de493	-0.042454313
132	0x3c4fdef3	0.012687433
133	0x3d871b4b	0.065970026
134	0x3da8af8c	0.08236608
135	0x3de4dce6	0.111749455
136	0x3d123334	0.035693362
137	0xbcb1f1b3	-0.021721696
138	0xbc028dec	-0.007968407
139	0x3e1a4fdc	0.15069526
140	0xbc369547	-0.011143989
141	0x3dba5187	0.09097581
142	0xbd495f24	-0.049163
143	0xbd13b987	-0.036065605
144	0xbdadcab5	-0.08485929
145	0x3ded0560	0.11573291
146	0xbd62d0ea	-0.055375017
147	0x3e04ce9d	0.12969442
148	0x3df2337c	0.11826226
149	0x3e0fbb22	0.14036229
150	0x3ce5e44b	0.02806296
151	0xbd393d5e	-0.04522454
152	0x3da7552e	0.081705436
153	0xbd15609a	-0.03646908
154	0x3d325265	0.04353561
155	0x3d94e346	0.072699115
156	0x3df7d37e	0.12100886
157	0x3c7f5710	0.015584722
158	0x3d631379	0.055438492
159	0x3e135d05	0.14390953
160	0xbd7575e8	-0.059926897
161	0xbd9b6341	-0.075872906
162	0x3d72eee3	0.05930985
163	0x3d8da16e	0.06915556
164	0xbd8ca857	-0.06868046
165	0x3c1cfcac	0.009581726
166	0x3d05dad2	0.032679386
167	0x3dda7803	0.10667422
168	0xbd32b53b	-0.043629866
169	0xbd95b0b2	-0.073090926
170	0x3d25aea1	0.040449742
171	0xbd48756e	-0.048940115
172	0xbd8edc31	-0.06975592
173	0x3e0866bb	0.13320439
174	0xbd748ff8	-0.05970761
175	0x3ddff582	0.10935499
176	0x3dff93d5	0.124793686
177	0xbcb0eb24	-0.021596499
178	0x3dab9ab9	0.083791204
179	0xbd004454	-0.031315163
180	0x3de3dba2	0.11125876
181	0xb858c5e8	-5.1682728e-05
182	0x3dcde25c	0.1005294
183	0x3df59bc3	0.119926
184	0x3c8c3cae	0.017118778
185	0x3d6a1ecf	0.057158288
186	0xbc872e6f	-0.016501633
187	0x3d906cbd	0.0705199
188	0xbd911068	-0.07083207
189	0xbc5f9143	-0.013645473
190	0xbcde348c	-0.027124666
191	0x3e1e8713	0.15481214
192	0x3d7c1f10	0.06155306
193	0x3e24b768	0.16085589
194	0xbcd8f6a2	-0.026484791
195	0x3cf7812e	0.030212965
196	0x3dc58e4f	0.09646284
197	0x3d398524	0.04529299
198	0xbd0eb14e	-0.03483706
199	0x3d48ac69	0.04899255
200	0x3d9575da	0.07297869
201	0x3caeb170	0.021324843
202	0x3ca6afef	0.020347564
203	0x3db33f8f	0.08752357
204	0x3d387fa9	0.04504362
205	0xbaef4f7c	-0.0018257941
206	0x3cb22e8b	0.021750709
207	0x3ca00dcd	0.01953783
208	0x3dfa2444	0.12213948
209	0x3dde90a9	0.108674355
210	0x3e091912	0.1338847
211	0xbd864e72	-0.06557931
212	0xbd532447	-0.05154827
213	0x3d6a307f	0.057175156
214	0x3df3f7ca	0.119124964
215	0x3ca574a5	0.020197222
216	0x3b21059b	0.0024569992
217	0x3c6902c4	0.014221851
218	0x3d98f8f5	0.0746936
219	0xbd01b6da	-0.03166852
220	0x3d844517	0.0645849
221	0x3dea022f	0.11426198
222	0x3d92f3c0	0.07175398
223	0x3d9722c6	0.073796794
224	0x3bb9bce7	0.005668271
225	0x3d97a02c	0.07403597
226	0x3ced1ac1	0.028943421
227	0x3e04515a	0.12921658
228	0xbc6e298a	-0.014536271
229	0xbd604397	-0.05475196
230	0xbd22fa49	-0.03978947
231	0x3e07bdbc	0.13255972
232	0x3dd60166	0.104494855
233	0xbd19a82b	-0.037513893
234	0x3afc2457	0.0019236904
235	0xbdb62222	-0.08893229
236	0x3d9638ea	0.07335074
237	0x3d8d82be	0.06909703
238	0xbd67474d	-0.056464482
239	0x3ddc55e8	0.10758573
240	0x3d0ee99e	0.034890763
241	0x3e0ef75c	0.13961548
242	0x3df9f6b5	0.12205259
243	0x3d95ee5a	0.073208526
244	0xbd5258d3	-0.05135424
245	0x3d994a93	0.07484927
246	0xbd858490	-0.06519425
247	0x3cf9ccfa	0.030493248
248	0x3cd71d0d	0.02625897
249	0xbd9591a6	-0.07303171
250	0x3e134af2	0.14384058
251	0x3e055cd0	0.13023686
252	0x3db117a8	0.0864709
253	0x3cdb6a09	0.02678396
254	0x3da1428a	0.078740194
255	0xbd6220ff	-0.05520725

model.2.weight f4 [256, 256]
0	0x3cde62e8	0.027146772
1	0x3d1746d2	0.036932774
2	0xbcaae37f	-0.020860432
3	0xbc93a8ce	-0.018024828
4	0xbd359932	-0.04433555
5	0xbd8dce54	-0.069241196
6	0x3dc61fd4	0.096740395
7	0xbcb16164	-0.021652885
8	0xbbd4e433	-0.00649693
9	0x3d0577ca	0.032584943
10	0xbba9ea2e	-0.005185387
11	0x3d99640f	0.07489788
12	0x3d93a3b0	0.07208955
13	0x3ce94153	0.028473532
14	0xbcafc9f1	-0.021458598
15	0xbd928b2b	-0.071554504
16	0x3d005ac5	0.031336565
17	0xbd506ad2	-0.05088312
18	0x3cec3570	0.028834075
19	0x3da483b0	0.0803293
20	0x3d73fcb1	0.059567157
21	0x3b9835b7	0.004645075
22	0x3d5037d9	0.05083451
23	0x3ac72580	0.0015193671
24	0xbcea2c6d	-0.028585637
25	0x3d5c0db6	0.053724013
26	0x3d06606f	0.03280681
27	0x3da0fafe	0.07860373
28	0x3d16f9c5	0.036859293
29	0x3d00518c	0.03132777
30	0x3d233e6b	0.03985445
31	0x3c26d1d6	0.010181865
32	0x3d3fb01e	0.046798818
33	0xbd46b5d3	-0.048513245
34	0x3d582025	0.05276503
35	0x3d43abb2	0.047771163
36	0x3bc94fc9	0.0061435443
37	0xbc0f92bf	-0.008763014
38	0xbd73b4f2	-0.059498735
39	0x3ca22aa4	0.019795723
40	0xbd177d35	-0.03698464
41	0x3db53dc6	0.08849673
42	0xbccf9b7b	-0.025342694
43	0x3d07fd3d	0.03320049
44	0xbd0885cd	-0.033330727
45	0x3d57e3f6	0.052707635
46	0xbd8c1bc3	-0.06841233
47	0x3d53452e	0.051579647
48	0x3d1fc357	0.03900465
49	0xbcd69a07	-0.026196493
50	0x3bacf12f	0.0052777748
51	0xbb8447db	-0.004036886
52	0xbd08b4ba	-0.03337548
53	0x3c8751eb	0.016518554
54	0xbd0892e5	-0.033343215
55	0x3c91c289	0.017792957
56	0x3ca580e6	0.020203065
57	0x3d32aba4	0.04362072
58	0x3d06411c	0.032776937
59	0x3b7de98f	0.0038743948
60	0xbc10bd0e	-0.008834137
61	0x3d99a4ae	0.07502113
62	0xbd122322	-0.035678037
63	0x3cb3816d	0.021912301
64	0x3cbf431a	0.023347426
65	0xbc9ee121	-0.01939446
66	0xbcb645d9	-0.022250103
67	0xbc6e6702	-0.014550926
68	0x3c0406f4	0.008058298
69	0x3cd2458d	0.02566793
70	0x3d1ab165	0.037766833
71	0x3d4e5671	0.050375406
72	0x3cb898d8	0.02253382
73	0xbc3ded18	-0.011592172
74	0xbd457e23	-0.048215996
75	0x3ba6c508	0.005089406
76	0x3d88ea2a	0.06685288
77	0xbcfd60b7	-0.030929906
78	0x3cedaf82	0.029014353
79	0xbad5b431	-0.0016304312
80	0x3be2879e	0.0069131395
81	0xbb8ba4e9	-0.004261602
82	0x3d4b2c8b	0.049603026
83	0xb9bf9423	-0.0003654073
84	0x3d217dde	0.039426677
85	0x3d3c95a1	0.046041135
86	0xbd6ca7c4	-0.05777718
87	0xbc19d706	-0.0093896445
88	0xbd359240	-0.044328928
89	0xbc2c7a39	-0.010527187
90	0xbd0d5f20	-0.034514546
91	0xbaf7c5f0	-0.0018903594
92	0x3d558b15	0.052134592
93	0xbc2ff238	-0.010738902
94	0x3d59950c	0.053120658
95	0x3caff912	0.02148107
96	0x3dadc269	0.084843464
97	0x3df0e406	0.11762242
98	0xbd33323f	-0.04374909
99	0x3c3a4aeb	0.011370401
100	0xbd506f46	-0.05088737
101	0x3d81a26a	0.06329806
102	0xbd3532f1	-0.044238035
103	0x3c837d00	0.016050816
104	0x3cd1620a	0.025559444
105	0xbcc732cd	-0.024316216
106	0xbd53e335	-0.051730353
107	0xbc8ce70f	-0.017200021
108	0x3b980d10	0.004640229
109	0xbc932fb0	-0.017967075
110	0x3d3ad6da	0.045615055
111	0x3d68e8c3	0.056862604
112	0x3cfadb42	0.030622128
113	0x3c9e3ffc	0.01931762
114	0x3d2932cf	0.04130822
115	0x3d1a4c0f	0.03767019
116	0xbd618835	-0.055061538
117	0xbcbee71c	-0.02330356
118	0xbd4d29f5	-0.05008884
119	0x3c254952	0.010088282
120	0x3d2c317e	0.042039387
121	0xbd8a60d0	-0.06756747
122	0xbd0af222	-0.033922322
123	0xbbd58b28	-0.006516833
124	0x3ce80795	0.028323928
125	0x3d6eac52	0.058269806
126	0xbd77317e	-0.060349934
127	0x3d73be74	0.059507802
128	0xbd5518b0	-0.052025497
129	0xbd3f706d	-0.046738077
130	0x3cdf7547	0.027277602
131	0xbc4829cb	-0.0122169955
132	0xbc4c40dd	-0.0124666365
133	0x3bda5ec7	0.0066641304
134	0xbc569611	-0.013097302
135	0xbce0b727	-0.027431084
136	0xbc91bc7c	-0.017790072
137	0x3c685879	0.01418125
138	0xbc961f3d	-0.018325442
139	0xbd3f1fc6	-0.04666116
140	0xbd2c44aa	-0.04205767
141	0xbc3a21c1	-0.011360587
142	0xbc88598b	-0.01664426
143	0x3d272e62	0.04081572
144	0xbd398831	-0.045295898
145	0x3d509f22	0.05093301
146	0xbd3441fd	-0.044008244
147	0xbc78d738	-0.015188031
148	0x3bb2ffa7	0.005462605
149	0xbd5d6531	-0.05405158
150	0x3c90abe2	0.017660085
151	0x3c830dd7	0.01599781
152	0x3c37e823	0.011224779
153	0x3ded1aac	0.11577353
154	0xbcfce530	-0.030871004
155	0x3d7e41f6	0.062074624
156	0xbd619b3c	-0.055079684
157	0xbc024e2e	-0.00795321
158	0x3cac6e27	0.021048618
159	0xbc8dca65	-0.017308423
160	0xbc86de38	-0.016463384
161	0xbd2f2f21	-0.042769555
162	0xbd0e1187	-0.034684684
163	0x3ba96f97	0.0051707732
164	0xbd5823c4	-0.052768484
165	0xbc8254bc	-0.015909545
166	0xbda1ecc6	-0.07906489
167	0x3da13560	0.078715086
168	0x3cef59d9	0.029217647
169	0x3c3a90fd	0.011387107
170	0x3ac50987	0.0015032747
171	0xbb7171f5	-0.0036841605
172	0xbc81a1c3	-0.015824204
173	0xbd28caec	-0.041209146
174	0xbc9727d8	-0.018451616
175	0xbd2c4ec6	-0.04206731
176	0x3d31a564	0.04337062
177	0x3b879388	0.00413746
178	0xbd27d42c	-0.040973827
179	0xbd26df21	-0.040740136
180	0x3cf4474e	0.029819157
181	0xbd579be8	-0.05263892
182	0xbc965f73	-0.01835606
183	0xbc89c869	-0.016819196
184	0xbb9a3971	-0.0047065546
185	0x3ce2928e	0.027657773
186	0x3d6ae84c	0.05735044
187	0xbd2c9a6e	-0.042139463
188	0xbd2add04	-0.041714683
189	0xbc4033a0	-0.011731058
190	0x3dc43ba4	0.09581688
191	0x3ca3cf19	0.019996213
192	0x3d1f194f	0.038842496
193	0x3d96d1ac	0.073642105
194	0x3c1bbf5e	0.009506075
195	0x3da3b2d4	0.07993093
196	0xbd6ca576	-0.057774983
197	0xbd81c623	-0.0633662
198	0xbd695cb5	-0.056973178
199	0x3c869ea5	0.01643307
200	0x3ccf364c	0.025294445
201	0x3d4bfc0a	0.04980091
202	0x3cf211a6	0.029549431
203	0xbcbca52b	-0.023027977
204	0x3d44a107	0.04800513
205	0xbd130d94	-0.03590162
206	0xbbef67dd	-0.0073060826
207	0xbbbbdef2	-0.0057333643
208	0xbda92802	-0.08259584
209	0x3d8b1671	0.0679139
210	0x3cb7d79e	0.022441681
211	0xbd04c0bb	-0.032410365
212	0xbc814d9b	-0.015784075
213	0x3c71989a	0.014745856
214	0x3d01aea5	0.031660695
215	0x3cd42a06	0.025898945
216	0xbd0df0bc	-0.03465341
217	0x3c9fe6bf	0.019519208
218	0x3cf93685	0.030421505
219	0x3d22a5b0	0.039708793
220	0xbd4e99df	-0.05043971
221	0xbc8369d5	-0.016041676
222	0xbd519bf6	-0.051174127
223	0xbd35ac4f	-0.04435378
224	0x3d996aef	0.07491099
225	0x3d03368a	0.032034434
226	0xbd6c57fe	-0.057701103
227	0xbd03f2c0	-0.032213926
228	0x3d7c9d55	0.06167348
229	0x3d2e4510	0.042546332
230	0x3cd9e44c	0.026598118
231	0x3d6f8bb1	0.05848283
232	0xbd05461a	-0.032537557
233	0x3d15eac0	0.03660083
234	0x3d6673cb	0.056262773
235	0xbd89075f	-0.06690859
236	0x3d5a02aa	0.053225197
237	0x3dc596d2	0.09647907
238	0xbd87f245	-0.06638006
239	0x3d0be958	0.03415808
240	0x3dad4c55	0.08461825
241	0x3cda60d4	0.0266575
242	0xbba980fe	-0.005172848
243	0x3d04ed10	0.032452643
244	0xbda214e4	-0.07914141
245	0x3d9244fe	0.071420655
246	0xbc6fa6e4	-0.014627192
247	0x3cb65dea	0.022261579
248	0x3cd257e0	0.025676668
249	0xbd83577e	-0.06413172
250	0xbca08499	-0.019594477
251	0xbd012528	-0.031529576
252	0xbd2f1c59	-0.042751644
253	0x3d558b27	0.05213466
254	0xbad4c819	-0.001623395
255	0x3d8b2f50	0.067961335

model.2.bias f4 [256]
0	0x3d3aa68c	0.045568988
1	0xbc35b15b	-0.011089648
2	0xbc6105f6	-0.013734331
3	0xbccfa40d	-0.02534678
4	0x3d803099	0.06259269
5	0xbd34a114	-0.04409893
6	0xbba31b07	-0.004977587
7	0xbd144407	-0.03619769
8	0xbb3ece32	-0.0029114601
9	0x3d41b490	0.04729134
10	0x3cb551f6	0.022133809
11	0xbc451b88	-0.01203049
12	0xbc8fed39	-0.017569171
13	0x3d347a16	0.044061743
14	0x3d84f9d2	0.06492962
15	0x3c838e0f	0.01605895
16	0x3d3b26b1	0.045691196
17	0x3d61c69b	0.055121046
18	0x3d1a12d8	0.037615627
19	0x3ce2918d	0.027657295
20	0xbc65641e	-0.014000921
21	0x3d2f57c4	0.04280831
22	0x3d5d437a	0.05401943
23	0xbc050720	-0.0081193745
24	0x3c909667	0.017649842
25	0x3d7bc3ff	0.061466213
26	0xbd0fb68e	-0.035086207
27	0xbd22c771	-0.039740983
28	0xbc9425a2	-0.018084351
29	0x3c91c50b	0.017794153
30	0x3d99e5fb	0.075145684
31	0xbd0118b0	-0.031517684
32	0xbbda5c35	-0.006663824
33	0x3cca4ae0	0.024693906
34	0xbd3539f8	-0.044244736
35	0x3d0408f1	0.03223509
36	0x3ca0965a	0.019602943
37	0xbd75322c	-0.0598623
38	0x3d83d3f3	0.064369105
39	0xbb67b280	-0.0035354197
40	0xbcae4199	-0.021271514
41	0xbd4ca40e	-0.049961142
42	0xbbd91b95	-0.0066256025
43	0xbc2c410c	-0.010513555
44	0x3d22edb6	0.03977748
45	0xbcd0390a	-0.025417823
46	0x39cc8c3f	0.00039014404
47	0x3cfc4023	0.030792302
48	0xbc3b768d	-0.011441839
49	0x3c129aa2	0.008948
50	0xbc263192	-0.010143654
51	0xbcf8f1b0	-0.030388683
52	0x3d82a926	0.06379919
53	0x3c984d75	0.018591622
54	0x3bce754b	0.0063006035
55	0xbcb9df73	-0.022689557
56	0xbd2222eb	-0.03958408
57	0xbc62efa3	-0.013851079
58	0x3c0a2c76	0.008433452
59	0xbd2e2ac8	-0.042521268
60	0xbc33bba5	-0.010970031
61	0x3d0860a3	0.033295285
62	0x3dad5aab	0.08464559
63	0x3a4e90f5	0.00078798766
64	0x3cd66c2e	0.026174631
65	0x3d8d7586	0.069071814
66	0xbd300202	-0.042970665
67	0xbbba19de	-0.005679353
68	0x3d3d71cf	0.046251114
69	0xbcf549c6	-0.029942404
70	0x3d4773dd	0.04869448
71	0x3d739b26	0.059474133
72	0xbd48e431	-0.049045745
73	0x3c0c5777	0.008565775
74	0xbd05048f	-0.03247505
75	0x3d846c5d	0.06465981
76	0xbd6f7442	-0.05846048
77	0xbb98c3be	-0.004662006
78	0xbca9e415	-0.02073864
79	0x3c0816a2	0.008306177
80	0x3cb42d17	0.021994157
81	0x3d53754a	0.051625527
82	0x3d716537	0.058934417
83	0xbc01d9a0	-0.007925421
84	0x3c3b8e11	0.0114474455
85	0x3c7d7ac7	0.015471167
86	0xbcb5bc3f	-0.02218449
87	0xbca373aa	-0.019952614
88	0x3c8e2ed6	0.017356317
89	0xbd0d6efd	-0.034529675
90	0x3b03bef1	0.0020102824
91	0xbc7be816	-0.015375158
92	0xbc0a4143	-0.008438411
93	0xbd03f695	-0.03221758
94	0x3d411a22	0.047144063
95	0x3af7f37d	0.001891717
96	0x3c5ade1b	0.013358618
97	0x3d13e888	0.03611043
98	0x3d018d02	0.031628616
99	0x3ae35260	0.0017343275
100	0x3c9e8892	0.019352231
101	0xbd10aa7f	-0.035318848
102	0xbd39c0f5	-0.045350034
103	0x3d6d1059	0.05787692
104	0xbc88c37b	-0.016694775
105	0xbcda9d6e	-0.026686396
106	0x3d890a4a	0.066914156
107	0x3d9675d4	0.07346693
108	0xb8a04e34	-7.643961e-05
109	0xbc26d40a	-0.01018239
110	0x3d065636	0.03279706
111	0x3b01f34c	0.0019828854
112	0x3d777154	0.060410812
113	0xbcb4297a	-0.021992434
114	0xbcd99f26	-0.026565146
115	0xbd11bf58	-0.03558287
116	0x3cf40e9e	0.029792126
117	0x3cc7d94d	0.02439561
118	0xbc3ee446	-0.011651104
119	0x3ce97cfd	0.028501982
120	0xbc5ba339	-0.0134056145
121	0x3d8edde1	0.06975914
122	0x3d5d8e94	0.05409105
123	0x3d2ca783	0.04215194
124	0xbd0c7b0f	-0.034297045
125	0x3d921ada	0.07134028
126	0xbd1563f3	-0.036472272
127	0x3cdfc2b9	0.02731453
128	0xbc638df8	-0.013888828
129	0xbd560820	-0.052253842
130	0xbd3ec078	-0.04657027
131	0xbb53f13c	-0.0032339832
132	0x3c426635	0.011865188
133	0x3d011d3d	0.031522024
134	0x3bdc8756	0.0067300005
135	0xbc16fc7a	-0.009215469
136	0x3d86f456	0.06589572
137	0x3d5c1007	0.053726222
138	0x3d8ccf13	0.06875434
139	0xbd063259	-0.03276286
140	0xbc8c2a6f	-0.017110078
141	0x3bece54a	0.007229482
142	0xba2ed91e	-0.0006669926
143	0xbcd81c82	-0.026380781
144	0x3d8c6cb8	0.06856674
145	0xbc7692ce	-0.015049649
146	0xbb015ef2	-0.001974043
147	0x3d33a2f1	0.043856565
148	0xbb659349	-0.0035030416
149	0xbd2ae125	-0.04171862
150	0xba057ee6	-0.00050924567
151	0x3d456a97	0.048197355
152	0xbd3640a2	-0.044495232
153	0xbbd95879	-0.006632861
154	0xbd4b550f	-0.049641665
155	0xbce36f40	-0.02776301
156	0x3d670192	0.056397982
157	0x3d866b99	0.065634914
158	0xbce6098f	-0.02808073
159	0xbd3a3d77	-0.045468774
160	0x3c624355	0.0138099985
161	0x3bf8fbe3	0.0075983866
162	0x3cd6c799	0.026218222
163	0xbd354380	-0.044253826
164	0x3a7324e2	0.00092752103
165	0x3d8b914c	0.068148226
166	0x3d45fb1d	0.048335183
167	0x3cbe1003	0.023200994
168	0xbcdb0f1c	-0.026740603
169	0xbb261602	-0.0025342708
170	0x3d58f9ac	0.05297248
171	0xbd1d210d	-0.038361598
172	0x3cfa4b1b	0.030553391
173	0x3d4e7ab6	0.050409995
174	0x3ca1eb11	0.019765409
175	0xbd412145	-0.04715087
176	0x3d2e1911	0.042504374
177	0x3c99e677	0.018786652
178	0x3d3f2083	0.046661865
179	0x3d52d483	0.0514722
180	0x3d07e6ed	0.033179212
181	0x3d59a404	0.053134933
182	0xbd5cccca	-0.05390624
183	0xbba13721	-0.004919902
184	0xbd3ae39b	-0.045627218
185	0xbcc8f739	-0.024531947
186	0x3c5c2a5c	0.013437834
187	0xba5748e9	-0.00082124636
188	0xbd16df3f	-0.036833998
189	0xbcb1cd0a	-0.021704216
190	0xbc6fed74	-0.014644016
191	0x3d7e2850	0.062050164
192	0x3d36095d	0.044442523
193	0x3b3b1f03	0.002855242
194	0x3bf8aff5	0.007589335
195	0xbd63585d	-0.05550419
196	0x3d2200e7	0.03955164
197	0xbce27623	-0.027644223
198	0x3bb12230	0.005405687
199	0xbbe55425	-0.006998556
200	0xbc1b1a2b	-0.009466688
201	0xbc0dc6de	-0.008653371
202	0xbaad7628	-0.0013234066
203	0xbd800adf	-0.062520735
204	0x3d5fd1ce	0.054643445
205	0x3d171ac1	0.03689075
206	0x3d7c2462	0.061558135
207	0xbca7cc11	-0.020483049
208	0x3d3c6963	0.045998942
209	0x3d839e56	0.064266846
210	0x3d143b6b	0.036189478
211	0x3b48eadc	0.0030657565
212	0x3d25a514	0.040440634
213	0xbcbf34a8	-0.023340538
214	0x3c7c8d7f	0.015414595
215	0x3ca9a769	0.02070971
216	0x3cab8bf1	0.020940753
217	0x3cd30629	0.025759773
218	0x3c4c1a8f	0.012457504
219	0x3d333642	0.043752916
220	0x3c6adb8d	0.014334572
221	0xbd4ca270	-0.0499596
222	0x3cf933bb	0.030420175
223	0x3d86cccc	0.06582031
224	0x3d7dc971	0.061959688
225	0x3d7d9af9	0.06191537
226	0x3ca8c5eb	0.020602187
227	0x3ce121e4	0.02748198
228	0x3c82faef	0.015988795
229	0x3c5941c9	0.013260313
230	0xbcd238ad	-0.02566179
231	0x3d7b97d1	0.06142408
232	0xbb1ada56	-0.0023628674
233	0x3d9c3628	0.07627517
234	0xbb959ffd	-0.004566191
235	0xbc7fd8f4	-0.0156156905
236	0xbc9c8d38	-0.019110307
237	0xbcc4230f	-0.023942498
238	0x3d90c6bb	0.07069155
239	0xbc0fb5c5	-0.008771365
240	0xbcfe5315	-0.031045476
241	0x3a966992	0.0011475554
242	0x3c35d232	0.011097478
243	0xbcc2c8c6	-0.023777377
244	0xbc66086d	-0.014040095
245	0xbd37cc50	-0.044872582
246	0x3c45c341	0.012070478
247	0x3bd41568	0.0064722784
248	0xbc96d294	-0.018410958
249	0x3d1f227d	0.03885125
250	0xbba91e09	-0.005161051
251	0xbc665d57	-0.01406034
252	0xbc00cf76	-0.007861963
253	0x3da7ee35	0.08199731
254	0xbb85ef47	-0.004087362
255	0x3d89c735	0.06727449

model.4.weight f4 [37, 256]
0	0x3a004ba1	0.0004894082
1	0xbd6a47b5	-0.05719729
2	0xbcf9911b	-0.0304647
3	0x3b6d2f3a	0.003619148
4	0xbd84e0a9	-0.06488163
5	0xbc516e67	-0.01278267
6	0xbba62d75	-0.005071337
7	0xbc97b5e3	-0.018519348
8	0x3ca9692d	0.020680035
9	0xbd8a349b	-0.06748315
10	0xbb0db8d9	-0.002162507
11	0xbd8b01ad	-0.06787429
12	0x3cd23142	0.025658254
13	0xbc1b19ac	-0.00946657
14	0xbc2512fa	-0.010075325
15	0xbc4a29a2	-0.012339028
16	0x3d5b5275	0.053545434
17	0xbd95b554	-0.07309976
18	0xbcdfb1f6	-0.027306538
19	0x3d8b9fe9	0.0681761
20	0xbd3949f7	-0.045236554
21	0xbcd8c535	-0.026461223
22	0xbdd099f8	-0.10185617
23	0xbbc6295d	-0.0060474114
24	0x3d035de4	0.032071963
25	0xbdadfae3	-0.084951185
26	0xbc7e0ac8	-0.0155055
27	0x3c7fa294	0.0156027265
28	0xbc80e513	-0.015734231
29	0x3d78ceca	0.060744084
30	0x3ced6ee9	0.02898355
31	0x3db88c88	0.09011179
32	0xbd5c0f49	-0.053725515
33	0xbda319fa	-0.07963939
34	0xbc3bbacc	-0.01145811
35	0xbd0bc68f	-0.034124907
36	0xbcb99e29	-0.022658424
37	0xbd245753	-0.04012234
38	0x3db8fc8b	0.09032544
39	0xbcedba82	-0.029019598
40	0x3d2cbe1b	0.042173486
41	0xbd080b82	-0.0332141
42	0xbda95536	-0.08268206
43	0xbd2ed217	-0.042680826
44	0x3d0763ee	0.033054285
45	0xbd1e8eb7	-0.038710322
46	0xbbc5b9d4	-0.0060341153
47	0x3d8007d8	0.06251496
48	0xbc12991b	-0.008947636
49	0xbd8cb678	-0.06870741
50	0x3d9b643b	0.07587477
51	0xbc59cc6a	-0.013293365
52	0x3db1f34a	0.08688982
53	0xbdc841cd	-0.097781755
54	0xbd8961c4	-0.067081004
55	0x3d82a02c	0.063782066
56	0x3ae76953	0.001765529
57	0x3bae4d2c	0.005319258
58	0xbd7356d6	-0.059408985
59	0x3d0254f0	0.031819284
60	0x3d40bc5e	0.04705464
61	0xbd917420	-0.07102227
62	0xbd68547d	-0.0567212
63	0xbd9d18de	-0.07670759
64	0x3d8c5eec	0.068540424
65	0x3d810c71	0.06301201
66	0x3d05e3f1	0.032688085
67	0x3ce8df7b	0.028426876
68	0xbd28e9b1	-0.04123849
69	0xbc45eac3	-0.012079897
70	0x3d093560	0.033498168
71	0xbdbcd77c	-0.09220788
72	0xbd749090	-0.059708178
73	0xbd1d1c5c	-0.038357124
74	0x3d4e8157	0.050416317
75	0xbcf36cd6	-0.029714983
76	0x3d48e577	0.04904696
77	0xbca65946	-0.02030624
78	0xbc983583	-0.018580204
79	0x3db9593f	0.090502255
80	0xbd877ad4	-0.066152245
81	0x3d5e5e78	0.05428931
82	0xbd2b0629	-0.04175392
83	0xbd1576b9	-0.036490176
84	0xb8866518	-6.408448e-05
85	0x3da53fe5	0.080688275
86	0x3d8936c4	0.06699899
87	0x3d20abd1	0.039226357
88	0xbcc231d3	-0.023705399
89	0xbd6de883	-0.05808307
90	0x3d64191b	0.055688005
91	0xbdc0a6e1	-0.094068296
92	0x3cb2d324	0.021829195
93	0x3d9fbd10	0.07799733
94	0x3d12fd33	0.035886
95	0x3d8db2bf	0.06918859
96	0x3d773083	0.060349
97	0x3d167f47	0.036742475
98	0x3c8a66f9	0.016894804
99	0xbaeb7f0f	-0.0017966944
100	0xbd83d674	-0.06437388
101	0xbd80f7b2	-0.06297244
102	0xbd851337	-0.064978056
103	0x3c2f7222	0.010708364
104	0xbd1b9003	-0.037979137
105	0xbc8f7fa8	-0.017516926
106	0x3c358433	0.011078882
107	0xbc166978	-0.009180419
108	0xbd8d6fb5	-0.06906072
109	0x3c2ff0bd	0.010738549
110	0xbd512ce8	-0.051068217
111	0x3d4923b9	0.049106333
112	0xbc5112e9	-0.012760856
113	0x3d374be5	0.044750113
114	0xbd8595f7	-0.06522744
115	0x3c6f8716	0.014619609
116	0xbda80bb1	-0.08205355
117	0xbd9d8811	-0.07691968
118	0x3d9102b8	0.07080597
119	0xbd0f74be	-0.035023443
120	0x3d9a6855	0.07539431
121	0xbdc3bd81	-0.095576294
122	0x3d72e8d8	0.05930409
123	0x3d5d5354	0.054034546
124	0x3cf474d3	0.029840862
125	0xbd79f02b	-0.061020058
126	0x3da17514	0.07883659
127	0x39f70e8f	0.00047122358
128	0xbbb0c347	-0.0053943726
129	0xbccf7dfb	-0.025328627
130	0x3dc67449	0.096901484
131	0xbc845864	-0.01615543
132	0xbce30b87	-0.027715458
133	0x3d3e5ee2	0.046477206
134	0xbd4bd7cb	-0.049766343
135	0xbc9c0bcc	-0.019048594
136	0xbcda21f0	-0.02662751
137	0x3d50a84c	0.05094175
138	0x3d247772	0.040152974
139	0xbd4a2c8f	-0.0493589
140	0x3d11b3c7	0.03557184
141	0xbdab1bde	-0.083549246
142	0xbc656ca1	-0.01400295
143	0xbc0b276e	-0.0084932875
144	0x3da026c4	0.07819894
145	0x3d810d8b	0.06301411
146	0x3b4fb732	0.0031694886
147	0x3c1c0d0e	0.009524597
148	0xbd84a7df	-0.06477331
149	0x3c47c1d2	0.012192206
150	0xbc55bfa4	-0.013046179
151	0xbd6b6212	-0.057466574
152	0xbd3a8854	-0.04554017
153	0xbd82864e	-0.06373273
154	0x3d81ec4c	0.06343898
155	0xbc0ff798	-0.008787058
156	0x3caf8b82	0.021428827
157	0x3996667a	0.0002868658
158	0xbd14a222	-0.036287434
159	0xbd520cc7	-0.051281717
160	0x3c43e6af	0.011956855
161	0xbd45a8e0	-0.048256755
162	0xbc993dde	-0.018706258
163	0x3d662570	0.056188047
164	0xbd9801ca	-0.07422216
165	0x3d380b46	0.044932626
166	0x3d1ed288	0.038774997
167	0xbc8860a5	-0.016647646
168	0xbbb98e9c	-0.0056627523
169	0x3b9d2f7e	0.0047969213
170	0x3c88c4a1	0.016695322
171	0x3d890189	0.06689746
172	0xbd1785ce	-0.03699284
173	0x3d8cbcb3	0.06871929
174	0x3d54666f	0.0518555
175	0xb985b9f8	-0.00025506294
176	0x3b14b625	0.0022691574
177	0xbdd1bc1f	-0.102409594
178	0xbcc7a806	-0.024372112
179	0xbd480109	-0.048829112
180	0xbcb6fd2b	-0.022337517
181	0x3d9dbafb	0.07701679
182	0x3d55457a	0.05206821
183	0xbdb3fed3	-0.08788838
184	0xbd230a0b	-0.0398045
185	0xbcf0967e	-0.029368635
186	0x3d873513	0.0660192
187	0xbd783508	-0.06059745
188	0x3dc86f2a	0.09786828
189	0xbd242e8d	-0.040083457
190	0xbd52999e	-0.051416032
191	0x3d5e4809	0.054267917
192	0x3d642648	0.05570057
193	0x3c8935a3	0.016749209
194	0x3d95b5bc	0.07310054
195	0x3d48fad0	0.04906732
196	0xbd4eaa10	-0.050455153
197	0xbc4b35fd	-0.0124030085
198	0xbbd935fe	-0.006628751
199	0xbd3a08a7	-0.045418408
200	0x3d89b078	0.06723112
201	0xbd222093	-0.039581846
202	0x3d77032a	0.06030575
203	0x3a066731	0.0005127071
204	0x3d9d27e6	0.07673626
205	0xbcec8419	-0.028871583
206	0xbda2eef0	-0.0795573
207	0xbbe947e9	-0.007119168
208	0x3b8217b8	0.0039701127
209	0xbda8f536	-0.08249895
210	0x3ceb4cbb	0.028723111
211	0xba9036ee	-0.0011002698
212	0xbc450a5f	-0.012026398
213	0x3c93880d	0.01800921
214	0xbca44fce	-0.020057585
215	0x3dcb47c7	0.099258
216	0x3d5cc208	0.05389598
217	0xbd914138	-0.070925176
218	0x3d5bec4c	0.053692147
219	0xbd9164fd	-0.0709934
220	0x3d650c7e	0.055920117
221	0xbd938baf	-0.07204377
222	0x3dab273f	0.08357095
223	0x3bb8cd57	0.005639713
224	0x3cc9be46	0.024626862
225	0xbd262b7c	-0.040568814
226	0x3bd5965e	0.0065181693
227	0x3d88fff2	0.06689443
228	0xbce264d1	-0.027635964
229	0xbd483a1e	-0.04888355
230	0x3dcf5cc3	0.10125115
231	0x3ce812a0	0.028329194
232	0x3d18c2f9	0.037295315
233	0x3d98f7f2	0.07469167
234	0xbdbc62a7	-0.09198504
235	0xbd49cff8	-0.0492706
236	0xbbe19846	-0.0068846075
237	0x3dd132bb	0.10214754
238	0x3d75fcb0	0.060055435
239	0x3aef68e2	0.001826551
240	0xbd5bac44	-0.053631082
241	0xbcf560ba	-0.02995335
242	0xbb68dc5d	-0.0035531737
243	0xbd9d3101	-0.076753624
244	0xbcd6ac64	-0.02620525
245	0xbd3092bf	-0.043108698
246	0xbc3b3cd7	-0.01142808
247	0xbd59d2a7	-0.05317941
248	0x3d60b1f5	0.054857213
249	0x3d3f0d66	0.046643637
250	0xbcdc42d4	-0.026887335
251	0xbd76123f	-0.060075995
252	0xbb1ec045	-0.0024223488
253	0x3c86391f	0.01638466
254	0x3cae9bdf	0.02131456
255	0x3c065035	0.008197834

model.4.bias f4 [37]
0	0xbd31fe0f	-0.04345518
1	0x3ceb2fb9	0.02870928
2	0xbd683bf4	-0.0566978
3	0xb8e155fe	-0.00010744853
4	0xbd79fe46	-0.06103351
5	0xbd6d6d2e	-0.05796545
6	0x3d26eba7	0.04075208
7	0xbd3008a4	-0.04297699
8	0x3c4fc8fe	0.012682198
9	0x3d6151a8	0.055009514
10	0x3c9bacb2	0.019003246
11	0xbb1732cb	-0.0023071046
12	0x3d5ac97c	0.053414807
13	0x3d29d905	0.04146673
14	0xbcd9c63f	-0.026583789
15	0xbcc57f11	-0.024108442
16	0xbc2c230c	-0.010506403
17	0xbc288657	-0.010285935
18	0x3cbbba87	0.022916092
19	0xbb09b175	-0.0021010314
20	0xbd86b9e6	-0.06578426
21	0xbd431b0c	-0.047633216
22	0x3d58aebf	0.052901026
23	0xbd2939de	-0.041314952
24	0xbd5c5a74	-0.0537972
25	0xbc91781a	-0.017757464
26	0xbd6e8498	-0.05823192
27	0xba0b0c2b	-0.00053042424
28	0xbd004d2e	-0.031323604
29	0xbc05e430	-0.00817208
30	0xbd479a53	-0.04873116
31	0x3d18d913	0.037316393
32	0x3cfc5f1d	0.030807072
33	0xbd26c524	-0.04071535
34	0x3d3a06ec	0.045416757
35	0x3d3734a6	0.044727944
36	0x3d5a56b6	0.05330535
